.docu/my-koda-8-8-0.xapk.out/unknown/cz.skodaauto.myskoda/assets/mlkit_barcode_models/barcode_ssd_mobilenet_v1_dmp25_quant.tflite (tflite, 390456 bytes, 63 tensors)

BoxPredictor_0/BoxEncodingPredictor/weights_quant/FakeQuantWithMinMaxVars u1 [60, 1, 1, 128] scale=0.01313136 zero_point=131
0	0x7f	-0.05252544
1	0x85	0.02626272
2	0x87	0.05252544
3	0x7f	-0.05252544
4	0x83	0.0
5	0x84	0.01313136
6	0x7e	-0.065656796
7	0x80	-0.03939408
8	0x85	0.02626272
9	0x7c	-0.09191952
10	0x88	0.065656796
11	0x94	0.22323312
12	0x7f	-0.05252544
13	0x87	0.05252544
14	0xa6	0.4595976
15	0x8c	0.118182234
16	0xa4	0.43333486
17	0x83	0.0
18	0x85	0.02626272
19	0x82	-0.01313136
20	0x83	0.0
21	0x87	0.05252544
22	0x83	0.0
23	0x88	0.065656796
24	0x7e	-0.065656796
25	0x86	0.03939408
26	0x82	-0.01313136
27	0x56	-0.5909112
28	0x74	-0.19697039
29	0x9e	0.3545467
30	0x81	-0.02626272
31	0x85	0.02626272
32	0x84	0.01313136
33	0x62	-0.43333486
34	0x85	0.02626272
35	0x82	-0.01313136
36	0x81	-0.02626272
37	0x83	0.0
38	0x88	0.065656796
39	0x85	0.02626272
40	0x80	-0.03939408
41	0x85	0.02626272
42	0x81	-0.02626272
43	0x7f	-0.05252544
44	0x85	0.02626272
45	0x88	0.065656796
46	0x84	0.01313136
47	0x84	0.01313136
48	0x83	0.0
49	0x64	-0.40707216
50	0x93	0.21010175
51	0x85	0.02626272
52	0x8c	0.118182234
53	0x83	0.0
54	0x85	0.02626272
55	0x85	0.02626272
56	0x83	0.0
57	0x84	0.01313136
58	0x7e	-0.065656796
59	0x7e	-0.065656796
60	0x96	0.24949583
61	0x7a	-0.118182234
62	0x8d	0.13131359
63	0x76	-0.17070767
64	0x85	0.02626272
65	0x83	0.0
66	0x8c	0.118182234
67	0x83	0.0
68	0x81	-0.02626272
69	0x7e	-0.065656796
70	0x84	0.01313136
71	0x78	-0.14444496
72	0x81	-0.02626272
73	0x83	0.0
74	0x83	0.0
75	0x67	-0.36767808
76	0x85	0.02626272
77	0x82	-0.01313136
78	0x82	-0.01313136
79	0x86	0.03939408
80	0x82	-0.01313136
81	0x83	0.0
82	0x88	0.065656796
83	0xc6	0.8798011
84	0x59	-0.5515171
85	0x83	0.0
86	0x81	-0.02626272
87	0x7f	-0.05252544
88	0x85	0.02626272
89	0x85	0.02626272
90	0x83	0.0
91	0x83	0.0
92	0x82	-0.01313136
93	0x84	0.01313136
94	0x8c	0.118182234
95	0x82	-0.01313136
96	0x80	-0.03939408
97	0x80	-0.03939408
98	0x7c	-0.09191952
99	0x6f	-0.26262718
100	0x7c	-0.09191952
101	0x59	-0.5515171
102	0x86	0.03939408
103	0x90	0.17070767
104	0x7f	-0.05252544
105	0x80	-0.03939408
106	0x85	0.02626272
107	0x82	-0.01313136
108	0x84	0.01313136
109	0x86	0.03939408
110	0x85	0.02626272
111	0x8c	0.118182234
112	0xab	0.52525437
113	0x83	0.0
114	0x97	0.26262718
115	0x81	-0.02626272
116	0x94	0.22323312
117	0x7e	-0.065656796
118	0x78	-0.14444496
119	0x8b	0.10505088
120	0x80	-0.03939408
121	0x80	-0.03939408
122	0xa9	0.49899167
123	0x83	0.0
124	0x83	0.0
125	0x84	0.01313136
126	0x85	0.02626272
127	0x86	0.03939408
128	0x82	-0.01313136
129	0x83	0.0
130	0x7f	-0.05252544
131	0x8d	0.13131359
132	0x85	0.02626272
133	0x92	0.19697039
134	0x87	0.05252544
135	0x81	-0.02626272
136	0xb6	0.6696993
137	0x4e	-0.6959621
138	0x82	-0.01313136
139	0x6c	-0.30202127
140	0x81	-0.02626272
141	0xb2	0.6171739
142	0x80	-0.03939408
143	0x7d	-0.07878816
144	0x81	-0.02626272
145	0x81	-0.02626272
146	0x93	0.21010175
147	0x81	-0.02626272
148	0x51	-0.656568
149	0x85	0.02626272
150	0x7f	-0.05252544
151	0x89	0.07878816
152	0x89	0.07878816
153	0x81	-0.02626272
154	0x83	0.0
155	0x84	0.01313136
156	0x81	-0.02626272
157	0x8e	0.14444496
158	0x80	-0.03939408
159	0x6e	-0.27575856
160	0x82	-0.01313136
161	0x89	0.07878816
162	0x7e	-0.065656796
163	0x83	0.0
164	0x79	-0.13131359
165	0x84	0.01313136
166	0x7c	-0.09191952
167	0x83	0.0
168	0x81	-0.02626272
169	0x81	-0.02626272
170	0x7f	-0.05252544
171	0x85	0.02626272
172	0x84	0.01313136
173	0x80	-0.03939408
174	0x82	-0.01313136
175	0x81	-0.02626272
176	0x84	0.01313136
177	0x86	0.03939408
178	0x89	0.07878816
179	0x83	0.0
180	0x81	-0.02626272
181	0x7e	-0.065656796
182	0x86	0.03939408
183	0x86	0.03939408
184	0x7d	-0.07878816
185	0x82	-0.01313136
186	0x83	0.0
187	0x82	-0.01313136
188	0x8c	0.118182234
189	0x82	-0.01313136
190	0x7b	-0.10505088
191	0x85	0.02626272
192	0x82	-0.01313136
193	0x82	-0.01313136
194	0x8c	0.118182234
195	0x85	0.02626272
196	0x84	0.01313136
197	0x84	0.01313136
198	0x84	0.01313136
199	0x8a	0.09191952
200	0x85	0.02626272
201	0xaa	0.51212305
202	0x86	0.03939408
203	0x83	0.0
204	0x98	0.27575856
205	0x82	-0.01313136
206	0x9a	0.30202127
207	0x66	-0.38080943
208	0x85	0.02626272
209	0x84	0.01313136
210	0x84	0.01313136
211	0x7a	-0.118182234
212	0x7d	-0.07878816
213	0x85	0.02626272
214	0x83	0.0
215	0x80	-0.03939408
216	0x87	0.05252544
217	0x7e	-0.065656796
218	0x7f	-0.05252544
219	0x78	-0.14444496
220	0x84	0.01313136
221	0x86	0.03939408
222	0x8a	0.09191952
223	0x7f	-0.05252544
224	0x85	0.02626272
225	0x70	-0.24949583
226	0x85	0.02626272
227	0x95	0.23636447
228	0x82	-0.01313136
229	0x8d	0.13131359
230	0x87	0.05252544
231	0xa3	0.4202035
232	0x7e	-0.065656796
233	0x83	0.0
234	0x87	0.05252544
235	0x82	-0.01313136
236	0x83	0.0
237	0xb3	0.6303053
238	0x82	-0.01313136
239	0x84	0.01313136
240	0x7a	-0.118182234
241	0x8d	0.13131359
242	0x84	0.01313136
243	0x83	0.0
244	0x7d	-0.07878816
245	0x71	-0.23636447
246	0x7f	-0.05252544
247	0x82	-0.01313136
248	0x7f	-0.05252544
249	0x5a	-0.53838575
250	0x81	-0.02626272
251	0xa1	0.39394078
252	0x83	0.0
253	0x85	0.02626272
254	0x83	0.0
255	0x84	0.01313136

BoxPredictor_0/BoxEncodingPredictor_depthwise/weights_quant/FakeQuantWithMinMaxVars u1 [1, 3, 3, 128] scale=0.011566977 zero_point=165
0	0xbd	0.27760744
1	0xb4	0.17350465
2	0xb2	0.1503707
3	0xa3	-0.023133954
4	0x90	-0.24290651
5	0x9b	-0.11566977
6	0xb1	0.13880372
7	0xb7	0.20820558
8	0x9a	-0.12723675
9	0xa8	0.03470093
10	0xa2	-0.03470093
11	0xa0	-0.057834886
12	0xae	0.10410279
13	0x87	-0.3470093
14	0xa5	0.0
15	0xa7	0.023133954
16	0xa9	0.046267908
17	0x9d	-0.092535816
18	0x9d	-0.092535816
19	0xb6	0.19663861
20	0xb0	0.12723675
21	0x9a	-0.12723675
22	0x99	-0.13880372
23	0xa3	-0.023133954
24	0xb0	0.12723675
25	0xa8	0.03470093
26	0x9d	-0.092535816
27	0xa7	0.023133954
28	0xb6	0.19663861
29	0xa3	-0.023133954
30	0xb1	0.13880372
31	0xa1	-0.046267908
32	0x9b	-0.11566977
33	0x94	-0.19663861
34	0x7b	-0.48581302
35	0xb1	0.13880372
36	0x9a	-0.12723675
37	0xac	0.08096884
38	0x8e	-0.26604047
39	0x4b	-1.0410279
40	0xa2	-0.03470093
41	0x9e	-0.08096884
42	0x9f	-0.06940186
43	0x9c	-0.10410279
44	0xa0	-0.057834886
45	0xa8	0.03470093
46	0x97	-0.16193768
47	0xa1	-0.046267908
48	0x9d	-0.092535816
49	0x8e	-0.26604047
50	0xa7	0.023133954
51	0xce	0.47424605
52	0xa8	0.03470093
53	0xa0	-0.057834886
54	0x97	-0.16193768
55	0xa6	0.011566977
56	0x9d	-0.092535816
57	0xb0	0.12723675
58	0xb4	0.17350465
59	0x97	-0.16193768
60	0xa8	0.03470093
61	0xa1	-0.046267908
62	0xa5	0.0
63	0xa5	0.0
64	0xa1	-0.046267908
65	0xa9	0.046267908
66	0xa4	-0.011566977
67	0xab	0.06940186
68	0xa0	-0.057834886
69	0xb5	0.18507163
70	0xa0	-0.057834886
71	0xa5	0.0
72	0xc6	0.38171023
73	0xa8	0.03470093
74	0x9e	-0.08096884
75	0xa7	0.023133954
76	0x55	-0.9253582
77	0x9e	-0.08096884
78	0xa3	-0.023133954
79	0x88	-0.33544233
80	0xaa	0.057834886
81	0xab	0.06940186
82	0x97	-0.16193768
83	0x83	-0.39327723
84	0xa1	-0.046267908
85	0x9d	-0.092535816
86	0xb0	0.12723675
87	0xae	0.10410279
88	0x9b	-0.11566977
89	0xac	0.08096884
90	0xa5	0.0
91	0xa3	-0.023133954
92	0x96	-0.17350465
93	0xa0	-0.057834886
94	0xa4	-0.011566977
95	0x9c	-0.10410279
96	0xa5	0.0
97	0x9a	-0.12723675
98	0xa7	0.023133954
99	0x7d	-0.4626791
100	0xb6	0.19663861
101	0xa7	0.023133954
102	0x99	-0.13880372
103	0xad	0.092535816
104	0xa5	0.0
105	0xad	0.092535816
106	0xa3	-0.023133954
107	0xc1	0.32387537
108	0xa4	-0.011566977
109	0xac	0.08096884
110	0x9e	-0.08096884
111	0xa3	-0.023133954
112	0xa7	0.023133954
113	0xcf	0.48581302
114	0xa6	0.011566977
115	0xa9	0.046267908
116	0xa8	0.03470093
117	0xa7	0.023133954
118	0xb3	0.16193768
119	0xa7	0.023133954
120	0x9f	-0.06940186
121	0xa8	0.03470093
122	0xa5	0.0
123	0xa8	0.03470093
124	0x9c	-0.10410279
125	0x69	-0.6940186
126	0x92	-0.21977256
127	0x39	-1.2492335
128	0x76	-0.54364794
129	0xf4	0.9137912
130	0xa9	0.046267908
131	0xaa	0.057834886
132	0xa8	0.03470093
133	0x9f	-0.06940186
134	0xc5	0.37014326
135	0xb7	0.20820558
136	0xb5	0.18507163
137	0xa7	0.023133954
138	0x9c	-0.10410279
139	0xae	0.10410279
140	0xa7	0.023133954
141	0x9b	-0.11566977
142	0x90	-0.24290651
143	0xb2	0.1503707
144	0x90	-0.24290651
145	0xa0	-0.057834886
146	0xa5	0.0
147	0xb0	0.12723675
148	0xa3	-0.023133954
149	0x91	-0.23133954
150	0x92	-0.21977256
151	0x9e	-0.08096884
152	0xd2	0.52051395
153	0x9b	-0.11566977
154	0x95	-0.18507163
155	0xa5	0.0
156	0xaf	0.11566977
157	0xab	0.06940186
158	0xac	0.08096884
159	0x9a	-0.12723675
160	0x90	-0.24290651
161	0x8f	-0.2544735
162	0x81	-0.41641116
163	0xae	0.10410279
164	0xa2	-0.03470093
165	0xb6	0.19663861
166	0x4c	-1.0294609
167	0x2e	-1.3764702
168	0x8a	-0.31230837
169	0x9a	-0.12723675
170	0xa2	-0.03470093
171	0x9c	-0.10410279
172	0xc2	0.33544233
173	0x9f	-0.06940186
174	0x93	-0.20820558
175	0xa1	-0.046267908
176	0x9d	-0.092535816
177	0x8a	-0.31230837
178	0xac	0.08096884
179	0xc1	0.32387537
180	0x9c	-0.10410279
181	0xa5	0.0
182	0x9c	-0.10410279
183	0xa8	0.03470093
184	0x9e	-0.08096884
185	0xa4	-0.011566977
186	0xd0	0.49738002
187	0x9c	-0.10410279
188	0xd6	0.5667819
189	0xa6	0.011566977
190	0x9e	-0.08096884
191	0xb6	0.19663861
192	0x99	-0.13880372
193	0x96	-0.17350465
194	0xa7	0.023133954
195	0xc3	0.3470093
196	0x8f	-0.2544735
197	0xbb	0.2544735
198	0x99	-0.13880372
199	0x91	-0.23133954
200	0xbc	0.26604047
201	0xa4	-0.011566977
202	0x9e	-0.08096884
203	0xa1	-0.046267908
204	0x8f	-0.2544735
205	0x91	-0.23133954
206	0x9b	-0.11566977
207	0xc2	0.33544233
208	0xad	0.092535816
209	0xb0	0.12723675
210	0x98	-0.1503707
211	0x86	-0.3585763
212	0x83	-0.39327723
213	0xa1	-0.046267908
214	0xb1	0.13880372
215	0xc1	0.32387537
216	0x9d	-0.092535816
217	0xa8	0.03470093
218	0xab	0.06940186
219	0xb4	0.17350465
220	0x97	-0.16193768
221	0x9f	-0.06940186
222	0xb2	0.1503707
223	0x96	-0.17350465
224	0xa0	-0.057834886
225	0xa4	-0.011566977
226	0xb1	0.13880372
227	0xbb	0.2544735
228	0xb5	0.18507163
229	0xaa	0.057834886
230	0x9e	-0.08096884
231	0x98	-0.1503707
232	0xa8	0.03470093
233	0xb2	0.1503707
234	0x9f	-0.06940186
235	0x64	-0.7518535
236	0x9d	-0.092535816
237	0xa6	0.011566977
238	0xa5	0.0
239	0xa3	-0.023133954
240	0x96	-0.17350465
241	0xac	0.08096884
242	0xba	0.24290651
243	0xa3	-0.023133954
244	0xa6	0.011566977
245	0xb4	0.17350465
246	0xbb	0.2544735
247	0xbb	0.2544735
248	0xa4	-0.011566977
249	0xa3	-0.023133954
250	0xaa	0.057834886
251	0xa8	0.03470093
252	0x9a	-0.12723675
253	0x74	-0.5667819
254	0x95	-0.18507163
255	0x37	-1.2723675

BoxPredictor_0/ClassPredictor/weights_quant/FakeQuantWithMinMaxVars u1 [15, 1, 1, 128] scale=0.012273378 zero_point=169
0	0xae	0.06136689
1	0xb7	0.17182729
2	0xa8	-0.012273378
3	0xbd	0.24546756
4	0xaa	0.012273378
5	0xb9	0.19637404
6	0xa8	-0.012273378
7	0x8e	-0.3313812
8	0xc3	0.31910783
9	0xb8	0.18410067
10	0xa9	0.0
11	0xb7	0.17182729
12	0xe9	0.7854962
13	0x93	-0.27001432
14	0xc4	0.3313812
15	0xa8	-0.012273378
16	0x8f	-0.31910783
17	0xb9	0.19637404
18	0xa6	-0.036820132
19	0xa8	-0.012273378
20	0xb6	0.15955392
21	0xaf	0.073640265
22	0xc7	0.36820135
23	0xc7	0.36820135
24	0xaa	0.012273378
25	0xb1	0.09818702
26	0x8a	-0.38047472
27	0xad	0.04909351
28	0xa6	-0.036820132
29	0xca	0.40502146
30	0xaa	0.012273378
31	0xac	0.036820132
32	0xac	0.036820132
33	0x9a	-0.18410067
34	0xad	0.04909351
35	0xab	0.024546755
36	0xb2	0.1104604
37	0xaa	0.012273378
38	0xb1	0.09818702
39	0xa7	-0.024546755
40	0xb5	0.14728053
41	0xb0	0.08591364
42	0xcd	0.4418416
43	0xbd	0.24546756
44	0xa3	-0.073640265
45	0xbc	0.23319417
46	0xbc	0.23319417
47	0x9f	-0.12273378
48	0xad	0.04909351
49	0xbc	0.23319417
50	0xa6	-0.036820132
51	0xa6	-0.036820132
52	0xc4	0.3313812
53	0xb3	0.12273378
54	0xcd	0.4418416
55	0xab	0.024546755
56	0xa8	-0.012273378
57	0xda	0.6013955
58	0xa1	-0.09818702
59	0xb4	0.13500716
60	0xa5	-0.04909351
61	0xa0	-0.1104604
62	0xb2	0.1104604
63	0xad	0.04909351
64	0xb0	0.08591364
65	0xa7	-0.024546755
66	0xa7	-0.024546755
67	0xa8	-0.012273378
68	0xaf	0.073640265
69	0x91	-0.29456106
70	0x9d	-0.14728053
71	0xb3	0.12273378
72	0xa8	-0.012273378
73	0xa8	-0.012273378
74	0xb2	0.1104604
75	0xac	0.036820132
76	0xa9	0.0
77	0xa5	-0.04909351
78	0xa0	-0.1104604
79	0xb8	0.18410067
80	0xae	0.06136689
81	0xa5	-0.04909351
82	0x9c	-0.15955392
83	0x8a	-0.38047472
84	0xa4	-0.06136689
85	0xb4	0.13500716
86	0xa6	-0.036820132
87	0xb9	0.19637404
88	0x9c	-0.15955392
89	0xa6	-0.036820132
90	0x9a	-0.18410067
91	0xb0	0.08591364
92	0xa7	-0.024546755
93	0x9d	-0.14728053
94	0xac	0.036820132
95	0xa5	-0.04909351
96	0xcd	0.4418416
97	0xc2	0.30683443
98	0x9a	-0.18410067
99	0x9d	-0.14728053
100	0x9c	-0.15955392
101	0xb2	0.1104604
102	0xaf	0.073640265
103	0xb8	0.18410067
104	0xb3	0.12273378
105	0xad	0.04909351
106	0xaf	0.073640265
107	0xab	0.024546755
108	0x93	-0.27001432
109	0xa5	-0.04909351
110	0xa7	-0.024546755
111	0xb0	0.08591364
112	0xbd	0.24546756
113	0xab	0.024546755
114	0xbc	0.23319417
115	0xad	0.04909351
116	0x7b	-0.5645754
117	0xa3	-0.073640265
118	0x8f	-0.31910783
119	0x9f	-0.12273378
120	0x9e	-0.13500716
121	0xc8	0.38047472
122	0xab	0.024546755
123	0xb3	0.12273378
124	0xb0	0.08591364
125	0xb7	0.17182729
126	0x9a	-0.18410067
127	0xb1	0.09818702
128	0xa9	0.0
129	0x98	-0.20864742
130	0xa7	-0.024546755
131	0x99	-0.19637404
132	0xb2	0.1104604
133	0x98	-0.20864742
134	0xaa	0.012273378
135	0xc2	0.30683443
136	0x8f	-0.31910783
137	0x91	-0.29456106
138	0xac	0.036820132
139	0x96	-0.23319417
140	0x63	-0.85913646
141	0xba	0.20864742
142	0x8d	-0.34365457
143	0xaf	0.073640265
144	0xc5	0.34365457
145	0x97	-0.2209208
146	0xaf	0.073640265
147	0xa9	0.0
148	0x9c	-0.15955392
149	0xa3	-0.073640265
150	0x89	-0.3927481
151	0x8a	-0.38047472
152	0xad	0.04909351
153	0xa4	-0.06136689
154	0xc6	0.35592794
155	0xa7	-0.024546755
156	0xac	0.036820132
157	0x86	-0.42956823
158	0xa3	-0.073640265
159	0xaa	0.012273378
160	0xad	0.04909351
161	0xb8	0.18410067
162	0xa7	-0.024546755
163	0xb3	0.12273378
164	0xa2	-0.08591364
165	0xb3	0.12273378
166	0xa2	-0.08591364
167	0xaa	0.012273378
168	0x9f	-0.12273378
169	0xa1	-0.09818702
170	0x84	-0.45411497
171	0x95	-0.24546756
172	0xb3	0.12273378
173	0x98	-0.20864742
174	0x9b	-0.17182729
175	0xb7	0.17182729
176	0xa5	-0.04909351
177	0x92	-0.2822877
178	0xa8	-0.012273378
179	0xa6	-0.036820132
180	0x8c	-0.35592794
181	0xa2	-0.08591364
182	0x85	-0.4418416
183	0xa7	-0.024546755
184	0xaa	0.012273378
185	0x73	-0.6627624
186	0xb4	0.13500716
187	0xbe	0.25774094
188	0xac	0.036820132
189	0xb0	0.08591364
190	0xa1	-0.09818702
191	0xa5	-0.04909351
192	0xa1	-0.09818702
193	0x9e	-0.13500716
194	0xa5	-0.04909351
195	0xa2	-0.08591364
196	0xa4	-0.06136689
197	0xc3	0.31910783
198	0xb2	0.1104604
199	0x97	-0.2209208
200	0xac	0.036820132
201	0xa9	0.0
202	0x9d	-0.14728053
203	0xa0	-0.1104604
204	0xa8	-0.012273378
205	0xab	0.024546755
206	0xb3	0.12273378
207	0x9d	-0.14728053
208	0xa5	-0.04909351
209	0xac	0.036820132
210	0xb9	0.19637404
211	0xcb	0.41729483
212	0xaa	0.012273378
213	0x9e	-0.13500716
214	0xab	0.024546755
215	0x96	-0.23319417
216	0xb5	0.14728053
217	0xab	0.024546755
218	0xbe	0.25774094
219	0xa2	-0.08591364
220	0xa8	-0.012273378
221	0xb0	0.08591364
222	0xa4	-0.06136689
223	0xb2	0.1104604
224	0x84	-0.45411497
225	0x8b	-0.36820135
226	0xae	0.06136689
227	0xbb	0.2209208
228	0x46	-1.2150644
229	0xa0	-0.1104604
230	0xa3	-0.073640265
231	0xa2	-0.08591364
232	0x9e	-0.13500716
233	0xa3	-0.073640265
234	0xb7	0.17182729
235	0xab	0.024546755
236	0xba	0.20864742
237	0xac	0.036820132
238	0xaa	0.012273378
239	0x9a	-0.18410067
240	0x96	-0.23319417
241	0xaa	0.012273378
242	0x91	-0.29456106
243	0xa6	-0.036820132
244	0xd9	0.5891221
245	0xab	0.024546755
246	0xc4	0.3313812
247	0xc3	0.31910783
248	0xb4	0.13500716
249	0x88	-0.40502146
250	0xaa	0.012273378
251	0x9f	-0.12273378
252	0xa8	-0.012273378
253	0x9e	-0.13500716
254	0xbb	0.2209208
255	0xa1	-0.09818702

BoxPredictor_0/ClassPredictor_depthwise/weights_quant/FakeQuantWithMinMaxVars u1 [1, 3, 3, 128] scale=0.01623864 zero_point=105
0	0x73	0.16238639
1	0x5a	-0.24357958
2	0x65	-0.06495456
3	0x8c	0.56835234
4	0x74	0.17862503
5	0x4d	-0.4546819
6	0x5f	-0.16238639
7	0x45	-0.58459103
8	0x4a	-0.5033978
9	0x6d	0.06495456
10	0x4a	-0.5033978
11	0x4e	-0.43844324
12	0x5c	-0.2111023
13	0x4e	-0.43844324
14	0x84	0.43844324
15	0x70	0.113670476
16	0x56	-0.30853415
17	0x3c	-0.73073876
18	0x49	-0.51963645
19	0x51	-0.38972735
20	0x58	-0.27605686
21	0x79	0.25981823
22	0x5a	-0.24357958
23	0x7d	0.32477278
24	0x4d	-0.4546819
25	0x81	0.38972735
26	0x79	0.25981823
27	0x7b	0.29229552
28	0x6e	0.081193194
29	0x69	0.0
30	0x5c	-0.2111023
31	0x5f	-0.16238639
32	0x75	0.19486368
33	0x71	0.12990911
34	0x5a	-0.24357958
35	0x70	0.113670476
36	0x5d	-0.19486368
37	0x85	0.4546819
38	0x56	-0.30853415
39	0x5d	-0.19486368
40	0x6c	0.04871592
41	0x5d	-0.19486368
42	0x93	0.68202287
43	0x65	-0.06495456
44	0x6d	0.06495456
45	0x6e	0.081193194
46	0xa4	0.9580797
47	0x55	-0.32477278
48	0x6c	0.04871592
49	0x8a	0.5358751
50	0x99	0.7794547
51	0x6a	0.01623864
52	0x58	-0.27605686
53	0x62	-0.113670476
54	0x89	0.51963645
55	0x49	-0.51963645
56	0x5a	-0.24357958
57	0x84	0.43844324
58	0x52	-0.3734887
59	0x89	0.51963645
60	0x5d	-0.19486368
61	0x7b	0.29229552
62	0x63	-0.09743184
63	0x10	-1.4452388
64	0x4c	-0.47092053
65	0x79	0.25981823
66	0x5c	-0.2111023
67	0x73	0.16238639
68	0x74	0.17862503
69	0x52	-0.3734887
70	0x63	-0.09743184
71	0x63	-0.09743184
72	0xb6	1.2503753
73	0x49	-0.51963645
74	0xa7	1.0067956
75	0x60	-0.14614776
76	0x06	-1.6076252
77	0x68	-0.01623864
78	0x26	-1.0879889
79	0x80	0.3734887
80	0x67	-0.03247728
81	0x71	0.12990911
82	0x41	-0.64954555
83	0x83	0.4222046
84	0x6c	0.04871592
85	0x52	-0.3734887
86	0x5a	-0.24357958
87	0x38	-0.79569334
88	0x77	0.22734095
89	0x37	-0.81193197
90	0x59	-0.25981823
91	0x79	0.25981823
92	0x49	-0.51963645
93	0x6e	0.081193194
94	0x5b	-0.22734095
95	0x81	0.38972735
96	0x6d	0.06495456
97	0x5f	-0.16238639
98	0x66	-0.04871592
99	0x69	0.0
100	0x74	0.17862503
101	0x5f	-0.16238639
102	0x4a	-0.5033978
103	0x7b	0.29229552
104	0x68	-0.01623864
105	0x6e	0.081193194
106	0x60	-0.14614776
107	0x73	0.16238639
108	0x72	0.14614776
109	0x50	-0.40596598
110	0x65	-0.06495456
111	0x52	-0.3734887
112	0x66	-0.04871592
113	0x5b	-0.22734095
114	0x60	-0.14614776
115	0x83	0.4222046
116	0x6e	0.081193194
117	0x72	0.14614776
118	0x7a	0.27605686
119	0x5f	-0.16238639
120	0x6e	0.081193194
121	0x60	-0.14614776
122	0x39	-0.7794547
123	0x78	0.24357958
124	0x5d	-0.19486368
125	0x7d	0.32477278
126	0x50	-0.40596598
127	0x75	0.19486368
128	0x64	-0.081193194
129	0x90	0.6333069
130	0x50	-0.40596598
131	0x84	0.43844324
132	0x9c	0.8281706
133	0x99	0.7794547
134	0x8a	0.5358751
135	0x42	-0.6333069
136	0x48	-0.5358751
137	0x78	0.24357958
138	0x68	-0.01623864
139	0x60	-0.14614776
140	0x3c	-0.73073876
141	0x4f	-0.4222046
142	0x8c	0.56835234
143	0x69	0.0
144	0x1b	-1.2666138
145	0x43	-0.6170683
146	0x3c	-0.73073876
147	0x38	-0.79569334
148	0x51	-0.38972735
149	0x81	0.38972735
150	0x5d	-0.19486368
151	0x83	0.4222046
152	0x5d	-0.19486368
153	0x43	-0.6170683
154	0x83	0.4222046
155	0x80	0.3734887
156	0x81	0.38972735
157	0x4e	-0.43844324
158	0x63	-0.09743184
159	0x5d	-0.19486368
160	0x69	0.0
161	0x81	0.38972735
162	0x5b	-0.22734095
163	0x6f	0.09743184
164	0x67	-0.03247728
165	0x79	0.25981823
166	0x4c	-0.47092053
167	0x79	0.25981823
168	0x5b	-0.22734095
169	0x66	-0.04871592
170	0x8c	0.56835234
171	0x66	-0.04871592
172	0x65	-0.06495456
173	0x5c	-0.2111023
174	0x7e	0.34101143
175	0x57	-0.29229552
176	0x45	-0.58459103
177	0x66	-0.04871592
178	0xaa	1.0555116
179	0x5c	-0.2111023
180	0x70	0.113670476
181	0x44	-0.60082966
182	0x7c	0.30853415
183	0x43	-0.6170683
184	0x4d	-0.4546819
185	0x92	0.6657842
186	0x78	0.24357958
187	0x8c	0.56835234
188	0x4d	-0.4546819
189	0x79	0.25981823
190	0x72	0.14614776
191	0x7d	0.32477278
192	0x77	0.22734095
193	0x5b	-0.22734095
194	0x6a	0.01623864
195	0x65	-0.06495456
196	0x79	0.25981823
197	0x41	-0.64954555
198	0x6a	0.01623864
199	0x56	-0.30853415
200	0x90	0.6333069
201	0x4b	-0.48715916
202	0x86	0.47092053
203	0x66	-0.04871592
204	0x46	-0.56835234
205	0x6a	0.01623864
206	0x5d	-0.19486368
207	0x84	0.43844324
208	0x87	0.48715916
209	0x6c	0.04871592
210	0x47	-0.5521137
211	0x84	0.43844324
212	0x62	-0.113670476
213	0x5e	-0.17862503
214	0x57	-0.29229552
215	0x7d	0.32477278
216	0x6d	0.06495456
217	0x56	-0.30853415
218	0x59	-0.25981823
219	0x72	0.14614776
220	0x40	-0.6657842
221	0x5b	-0.22734095
222	0x6a	0.01623864
223	0x78	0.24357958
224	0x15	-1.3640457
225	0x67	-0.03247728
226	0x97	0.7469774
227	0xae	1.1204661
228	0x80	0.3734887
229	0x67	-0.03247728
230	0xa7	1.0067956
231	0x6f	0.09743184
232	0x61	-0.12990911
233	0x66	-0.04871592
234	0x83	0.4222046
235	0x70	0.113670476
236	0x79	0.25981823
237	0x47	-0.5521137
238	0x5e	-0.17862503
239	0x5f	-0.16238639
240	0x2e	-0.9580797
241	0x69	0.0
242	0x64	-0.081193194
243	0x5a	-0.24357958
244	0x76	0.2111023
245	0x74	0.17862503
246	0xff	2.4357958
247	0x41	-0.64954555
248	0x58	-0.27605686
249	0x50	-0.40596598
250	0x3c	-0.73073876
251	0x63	-0.09743184
252	0x66	-0.04871592
253	0xbe	1.3802843
254	0x8a	0.5358751
255	0x98	0.763216

BoxPredictor_1/BoxEncodingPredictor/weights_quant/FakeQuantWithMinMaxVars u1 [84, 1, 1, 256] scale=0.008305049 zero_point=127
0	0x80	0.008305049
1	0x7e	-0.008305049
2	0x77	-0.06644039
3	0x81	0.016610097
4	0x7d	-0.016610097
5	0x80	0.008305049
6	0x7e	-0.008305049
7	0x5c	-0.2906767
8	0x82	0.024915146
9	0x85	0.04983029
10	0x76	-0.07474544
11	0x7f	0.0
12	0x74	-0.09135553
13	0x80	0.008305049
14	0x7d	-0.016610097
15	0x83	0.033220194
16	0x7f	0.0
17	0x7e	-0.008305049
18	0x7f	0.0
19	0x7c	-0.024915146
20	0x7c	-0.024915146
21	0x7f	0.0
22	0x82	0.024915146
23	0x7e	-0.008305049
24	0x75	-0.08305049
25	0x7c	-0.024915146
26	0x7d	-0.016610097
27	0x7c	-0.024915146
28	0x84	0.041525245
29	0x80	0.008305049
30	0x58	-0.32389688
31	0x76	-0.07474544
32	0x82	0.024915146
33	0x7f	0.0
34	0x7d	-0.016610097
35	0x7e	-0.008305049
36	0x81	0.016610097
37	0x81	0.016610097
38	0x7a	-0.041525245
39	0x80	0.008305049
40	0x85	0.04983029
41	0x7f	0.0
42	0x7f	0.0
43	0x81	0.016610097
44	0x82	0.024915146
45	0x7f	0.0
46	0x94	0.17440602
47	0x7f	0.0
48	0x83	0.033220194
49	0x81	0.016610097
50	0x9d	0.24915145
51	0x4a	-0.44016758
52	0x7a	-0.041525245
53	0x7f	0.0
54	0x80	0.008305049
55	0x7f	0.0
56	0x7c	-0.024915146
57	0x83	0.033220194
58	0x75	-0.08305049
59	0x7f	0.0
60	0x7f	0.0
61	0x79	-0.04983029
62	0x7f	0.0
63	0x80	0.008305049
64	0x81	0.016610097
65	0x82	0.024915146
66	0x6d	-0.14949088
67	0x7b	-0.033220194
68	0x7e	-0.008305049
69	0x84	0.041525245
70	0x81	0.016610097
71	0x7e	-0.008305049
72	0x84	0.041525245
73	0x7b	-0.033220194
74	0x7e	-0.008305049
75	0x75	-0.08305049
76	0x7e	-0.008305049
77	0x87	0.06644039
78	0x7f	0.0
79	0x90	0.14118582
80	0x81	0.016610097
81	0x6c	-0.15779592
82	0x80	0.008305049
83	0x7e	-0.008305049
84	0x80	0.008305049
85	0x88	0.07474544
86	0x78	-0.058135338
87	0x7f	0.0
88	0x74	-0.09135553
89	0x79	-0.04983029
90	0x82	0.024915146
91	0x7f	0.0
92	0x7d	-0.016610097
93	0x7f	0.0
94	0x82	0.024915146
95	0x81	0.016610097
96	0x7b	-0.033220194
97	0x7b	-0.033220194
98	0x7e	-0.008305049
99	0x7f	0.0
100	0x8d	0.116270676
101	0x8c	0.10796563
102	0x7f	0.0
103	0x7a	-0.041525245
104	0x7f	0.0
105	0x7e	-0.008305049
106	0x87	0.06644039
107	0x7f	0.0
108	0x7b	-0.033220194
109	0x72	-0.10796563
110	0x7f	0.0
111	0x81	0.016610097
112	0x7b	-0.033220194
113	0x7e	-0.008305049
114	0x79	-0.04983029
115	0x7d	-0.016610097
116	0x80	0.008305049
117	0x7e	-0.008305049
118	0x7d	-0.016610097
119	0x7b	-0.033220194
120	0x7e	-0.008305049
121	0x78	-0.058135338
122	0x7e	-0.008305049
123	0x83	0.033220194
124	0x85	0.04983029
125	0x83	0.033220194
126	0x88	0.07474544
127	0x7f	0.0
128	0x77	-0.06644039
129	0x80	0.008305049
130	0x7c	-0.024915146
131	0x80	0.008305049
132	0x81	0.016610097
133	0x7d	-0.016610097
134	0x81	0.016610097
135	0x7e	-0.008305049
136	0x7d	-0.016610097
137	0x80	0.008305049
138	0x7e	-0.008305049
139	0x8e	0.12457573
140	0x7f	0.0
141	0x57	-0.33220196
142	0x82	0.024915146
143	0x7c	-0.024915146
144	0x7e	-0.008305049
145	0x7a	-0.041525245
146	0x79	-0.04983029
147	0x80	0.008305049
148	0x7f	0.0
149	0x82	0.024915146
150	0x80	0.008305049
151	0x7f	0.0
152	0x82	0.024915146
153	0x7e	-0.008305049
154	0x7e	-0.008305049
155	0x7c	-0.024915146
156	0x7e	-0.008305049
157	0x80	0.008305049
158	0x81	0.016610097
159	0x7e	-0.008305049
160	0x7e	-0.008305049
161	0x89	0.08305049
162	0x84	0.041525245
163	0x82	0.024915146
164	0x80	0.008305049
165	0x80	0.008305049
166	0x80	0.008305049
167	0x7e	-0.008305049
168	0x80	0.008305049
169	0x81	0.016610097
170	0x7e	-0.008305049
171	0x7c	-0.024915146
172	0x7b	-0.033220194
173	0x7f	0.0
174	0x81	0.016610097
175	0x80	0.008305049
176	0x87	0.06644039
177	0x82	0.024915146
178	0x73	-0.09966058
179	0x85	0.04983029
180	0x7d	-0.016610097
181	0x7c	-0.024915146
182	0x81	0.016610097
183	0x80	0.008305049
184	0x84	0.041525245
185	0x7f	0.0
186	0x81	0.016610097
187	0x7e	-0.008305049
188	0x7d	-0.016610097
189	0x8a	0.09135553
190	0x7d	-0.016610097
191	0x80	0.008305049
192	0x7b	-0.033220194
193	0x82	0.024915146
194	0x89	0.08305049
195	0x80	0.008305049
196	0x85	0.04983029
197	0x88	0.07474544
198	0x77	-0.06644039
199	0x80	0.008305049
200	0xab	0.36542213
201	0x74	-0.09135553
202	0x87	0.06644039
203	0x6e	-0.14118582
204	0x80	0.008305049
205	0x84	0.041525245
206	0x7f	0.0
207	0x83	0.033220194
208	0x7b	-0.033220194
209	0x7f	0.0
210	0x80	0.008305049
211	0x89	0.08305049
212	0x82	0.024915146
213	0x7c	-0.024915146
214	0x80	0.008305049
215	0x83	0.033220194
216	0x7e	-0.008305049
217	0x83	0.033220194
218	0x7f	0.0
219	0x80	0.008305049
220	0x7f	0.0
221	0x7e	-0.008305049
222	0x7b	-0.033220194
223	0x7f	0.0
224	0x86	0.058135338
225	0xb1	0.41525242
226	0x80	0.008305049
227	0x91	0.14949088
228	0x80	0.008305049
229	0x79	-0.04983029
230	0x83	0.033220194
231	0x7f	0.0
232	0x82	0.024915146
233	0x7f	0.0
234	0x7c	-0.024915146
235	0x7c	-0.024915146
236	0x7e	-0.008305049
237	0x7e	-0.008305049
238	0x86	0.058135338
239	0x82	0.024915146
240	0x82	0.024915146
241	0x7f	0.0
242	0x83	0.033220194
243	0x7c	-0.024915146
244	0x7e	-0.008305049
245	0x7f	0.0
246	0x80	0.008305049
247	0x88	0.07474544
248	0x81	0.016610097
249	0x80	0.008305049
250	0x80	0.008305049
251	0x7f	0.0
252	0x7b	-0.033220194
253	0x6b	-0.16610098
254	0x7e	-0.008305049
255	0x8b	0.09966058

BoxPredictor_1/BoxEncodingPredictor_depthwise/weights_quant/FakeQuantWithMinMaxVars u1 [1, 3, 3, 256] scale=0.032483865 zero_point=123
0	0x74	-0.22738706
1	0x76	-0.16241932
2	0x85	0.32483864
3	0x7c	0.032483865
4	0x6e	-0.42229024
5	0x77	-0.12993546
6	0x75	-0.1949032
7	0x7b	0.0
8	0x77	-0.12993546
9	0x76	-0.16241932
10	0x7b	0.0
11	0x90	0.68216115
12	0x7d	0.06496773
13	0x6b	-0.51974183
14	0x76	-0.16241932
15	0x7a	-0.032483865
16	0x7c	0.032483865
17	0x72	-0.2923548
18	0x99	0.9745159
19	0x85	0.32483864
20	0x7b	0.0
21	0x9f	1.1694192
22	0x76	-0.16241932
23	0x73	-0.25987092
24	0x77	-0.12993546
25	0x7e	0.0974516
26	0x87	0.3898064
27	0x75	-0.1949032
28	0x86	0.3573225
29	0x7a	-0.032483865
30	0x79	-0.06496773
31	0x75	-0.1949032
32	0x7a	-0.032483865
33	0x79	-0.06496773
34	0x61	-0.8445805
35	0x7a	-0.032483865
36	0x77	-0.12993546
37	0x72	-0.2923548
38	0x7f	0.12993546
39	0x78	-0.0974516
40	0x5e	-0.9420321
41	0x74	-0.22738706
42	0x75	-0.1949032
43	0x75	-0.1949032
44	0x7f	0.12993546
45	0x7a	-0.032483865
46	0x7f	0.12993546
47	0x82	0.22738706
48	0x7a	-0.032483865
49	0x79	-0.06496773
50	0x7a	-0.032483865
51	0x7b	0.0
52	0x78	-0.0974516
53	0x7c	0.032483865
54	0x78	-0.0974516
55	0x7f	0.12993546
56	0x87	0.3898064
57	0x7b	0.0
58	0x73	-0.25987092
59	0x86	0.3573225
60	0x7f	0.12993546
61	0x79	-0.06496773
62	0x7e	0.0974516
63	0x7c	0.032483865
64	0x7b	0.0
65	0x80	0.16241932
66	0x7d	0.06496773
67	0x7a	-0.032483865
68	0x8c	0.5522257
69	0x7d	0.06496773
70	0x5d	-0.9745159
71	0x75	-0.1949032
72	0x81	0.1949032
73	0x78	-0.0974516
74	0x77	-0.12993546
75	0x7a	-0.032483865
76	0x83	0.25987092
77	0x72	-0.2923548
78	0x7a	-0.032483865
79	0x79	-0.06496773
80	0x83	0.25987092
81	0x80	0.16241932
82	0x7d	0.06496773
83	0x7c	0.032483865
84	0x84	0.2923548
85	0x7e	0.0974516
86	0x76	-0.16241932
87	0x7b	0.0
88	0x78	-0.0974516
89	0x77	-0.12993546
90	0x7c	0.032483865
91	0x7d	0.06496773
92	0x78	-0.0974516
93	0x5f	-0.9095482
94	0x6b	-0.51974183
95	0x7c	0.032483865
96	0x77	-0.12993546
97	0x82	0.22738706
98	0x7b	0.0
99	0x75	-0.1949032
100	0x7d	0.06496773
101	0x7f	0.12993546
102	0x7b	0.0
103	0x75	-0.1949032
104	0x7e	0.0974516
105	0x9f	1.1694192
106	0x7f	0.12993546
107	0x76	-0.16241932
108	0x78	-0.0974516
109	0x83	0.25987092
110	0x89	0.4547741
111	0x9c	1.0719675
112	0x6f	-0.3898064
113	0x72	-0.2923548
114	0x76	-0.16241932
115	0x7e	0.0974516
116	0x80	0.16241932
117	0x74	-0.22738706
118	0x74	-0.22738706
119	0x71	-0.32483864
120	0x7c	0.032483865
121	0x7a	-0.032483865
122	0x78	-0.0974516
123	0x76	-0.16241932
124	0x98	0.9420321
125	0x79	-0.06496773
126	0x91	0.714645
127	0x78	-0.0974516
128	0x77	-0.12993546
129	0x7a	-0.032483865
130	0x7a	-0.032483865
131	0x7a	-0.032483865
132	0x7e	0.0974516
133	0x7a	-0.032483865
134	0x7b	0.0
135	0x77	-0.12993546
136	0x77	-0.12993546
137	0x85	0.32483864
138	0x6d	-0.4547741
139	0x7b	0.0
140	0x76	-0.16241932
141	0x75	-0.1949032
142	0x7b	0.0
143	0x7e	0.0974516
144	0x77	-0.12993546
145	0x7c	0.032483865
146	0x70	-0.3573225
147	0x7b	0.0
148	0x75	-0.1949032
149	0x72	-0.2923548
150	0x75	-0.1949032
151	0x7d	0.06496773
152	0x7b	0.0
153	0x7b	0.0
154	0x77	-0.12993546
155	0x89	0.4547741
156	0x77	-0.12993546
157	0x8b	0.51974183
158	0x83	0.25987092
159	0x78	-0.0974516
160	0x69	-0.5847096
161	0x8f	0.6496773
162	0x7c	0.032483865
163	0x73	-0.25987092
164	0x8a	0.48725796
165	0x7d	0.06496773
166	0x7c	0.032483865
167	0x77	-0.12993546
168	0x76	-0.16241932
169	0x81	0.1949032
170	0x7d	0.06496773
171	0x7f	0.12993546
172	0x76	-0.16241932
173	0x7b	0.0
174	0x76	-0.16241932
175	0x7d	0.06496773
176	0x81	0.1949032
177	0x7b	0.0
178	0x77	-0.12993546
179	0x82	0.22738706
180	0x7e	0.0974516
181	0x73	-0.25987092
182	0x7f	0.12993546
183	0x79	-0.06496773
184	0x7a	-0.032483865
185	0x74	-0.22738706
186	0x7b	0.0
187	0x77	-0.12993546
188	0x6c	-0.48725796
189	0x83	0.25987092
190	0x7a	-0.032483865
191	0x77	-0.12993546
192	0x78	-0.0974516
193	0x73	-0.25987092
194	0x8c	0.5522257
195	0x74	-0.22738706
196	0x76	-0.16241932
197	0x84	0.2923548
198	0x7c	0.032483865
199	0x7c	0.032483865
200	0x7b	0.0
201	0x7d	0.06496773
202	0x7a	-0.032483865
203	0x79	-0.06496773
204	0x99	0.9745159
205	0x5f	-0.9095482
206	0x81	0.1949032
207	0x7b	0.0
208	0x7b	0.0
209	0x77	-0.12993546
210	0x7c	0.032483865
211	0x87	0.3898064
212	0x81	0.1949032
213	0x81	0.1949032
214	0x76	-0.16241932
215	0x86	0.3573225
216	0x80	0.16241932
217	0x7d	0.06496773
218	0x77	-0.12993546
219	0x76	-0.16241932
220	0x71	-0.32483864
221	0x81	0.1949032
222	0x70	-0.3573225
223	0x7b	0.0
224	0x77	-0.12993546
225	0x7b	0.0
226	0x7c	0.032483865
227	0x7b	0.0
228	0x7b	0.0
229	0x79	-0.06496773
230	0x8c	0.5522257
231	0x73	-0.25987092
232	0x73	-0.25987092
233	0x78	-0.0974516
234	0x73	-0.25987092
235	0x70	-0.3573225
236	0x7a	-0.032483865
237	0x77	-0.12993546
238	0x7e	0.0974516
239	0x7a	-0.032483865
240	0x80	0.16241932
241	0x75	-0.1949032
242	0x74	-0.22738706
243	0x72	-0.2923548
244	0x6d	-0.4547741
245	0x75	-0.1949032
246	0x7d	0.06496773
247	0x70	-0.3573225
248	0x7b	0.0
249	0x7a	-0.032483865
250	0x86	0.3573225
251	0x7c	0.032483865
252	0x77	-0.12993546
253	0x78	-0.0974516
254	0x7f	0.12993546
255	0x7b	0.0

BoxPredictor_1/ClassPredictor/weights_quant/FakeQuantWithMinMaxVars u1 [21, 1, 1, 256] scale=0.009541968 zero_point=182
0	0xba	0.03816787
1	0xd2	0.2671751
2	0xc1	0.10496165
3	0xb8	0.019083936
4	0xb4	-0.019083936
5	0xbd	0.06679378
6	0xb6	0.0
7	0xb7	0.009541968
8	0xb5	-0.009541968
9	0xbb	0.047709838
10	0xc5	0.14312951
11	0xd4	0.28625903
12	0xaf	-0.06679378
13	0xba	0.03816787
14	0xb2	-0.03816787
15	0xbc	0.057251807
16	0xbb	0.047709838
17	0xc3	0.12404558
18	0xba	0.03816787
19	0xbe	0.07633574
20	0xb1	-0.047709838
21	0xbc	0.057251807
22	0xa7	-0.14312951
23	0xbf	0.08587771
24	0xb1	-0.047709838
25	0xb2	-0.03816787
26	0xb9	0.028625904
27	0xc6	0.15267149
28	0xc6	0.15267149
29	0xce	0.22900723
30	0xc0	0.095419675
31	0xcc	0.2099233
32	0xb1	-0.047709838
33	0xbb	0.047709838
34	0xbe	0.07633574
35	0xc3	0.12404558
36	0xb3	-0.028625904
37	0xb1	-0.047709838
38	0xb8	0.019083936
39	0xb9	0.028625904
40	0xc7	0.16221346
41	0xc9	0.18129739
42	0xb7	0.009541968
43	0xb4	-0.019083936
44	0xbf	0.08587771
45	0xb8	0.019083936
46	0xbf	0.08587771
47	0xb6	0.0
48	0xbe	0.07633574
49	0xb8	0.019083936
50	0xb5	-0.009541968
51	0xbd	0.06679378
52	0xb3	-0.028625904
53	0xcc	0.2099233
54	0xbc	0.057251807
55	0xbb	0.047709838
56	0xb4	-0.019083936
57	0xb1	-0.047709838
58	0xb5	-0.009541968
59	0xb5	-0.009541968
60	0xb3	-0.028625904
61	0xb3	-0.028625904
62	0xb8	0.019083936
63	0xb0	-0.057251807
64	0xb8	0.019083936
65	0xb2	-0.03816787
66	0xac	-0.095419675
67	0xd3	0.27671707
68	0xb7	0.009541968
69	0xb7	0.009541968
70	0xb8	0.019083936
71	0xb6	0.0
72	0xbe	0.07633574
73	0xb6	0.0
74	0xb3	-0.028625904
75	0xc0	0.095419675
76	0xb9	0.028625904
77	0xd0	0.24809116
78	0xb6	0.0
79	0xc2	0.114503615
80	0xba	0.03816787
81	0xa7	-0.14312951
82	0xb6	0.0
83	0xc0	0.095419675
84	0xb9	0.028625904
85	0xbb	0.047709838
86	0xbb	0.047709838
87	0xaf	-0.06679378
88	0xc7	0.16221346
89	0xba	0.03816787
90	0xb7	0.009541968
91	0xc4	0.13358755
92	0xb6	0.0
93	0xb6	0.0
94	0xc3	0.12404558
95	0xb6	0.0
96	0xc0	0.095419675
97	0xd1	0.25763312
98	0xb6	0.0
99	0xc8	0.17175542
100	0xc1	0.10496165
101	0xb9	0.028625904
102	0xc1	0.10496165
103	0xc2	0.114503615
104	0xb9	0.028625904
105	0xb4	-0.019083936
106	0xb3	-0.028625904
107	0xbb	0.047709838
108	0xbe	0.07633574
109	0xbe	0.07633574
110	0xbd	0.06679378
111	0xb5	-0.009541968
112	0xc6	0.15267149
113	0xb7	0.009541968
114	0xbb	0.047709838
115	0xb7	0.009541968
116	0xb4	-0.019083936
117	0xb6	0.0
118	0xd6	0.30534297
119	0xc2	0.114503615
120	0xc1	0.10496165
121	0xb1	-0.047709838
122	0xbf	0.08587771
123	0xc1	0.10496165
124	0xb4	-0.019083936
125	0xb9	0.028625904
126	0xb7	0.009541968
127	0xbb	0.047709838
128	0xba	0.03816787
129	0xae	-0.07633574
130	0xc9	0.18129739
131	0xbe	0.07633574
132	0xb5	-0.009541968
133	0xb7	0.009541968
134	0xa4	-0.17175542
135	0xb8	0.019083936
136	0xbf	0.08587771
137	0xc0	0.095419675
138	0xb4	-0.019083936
139	0xae	-0.07633574
140	0xb8	0.019083936
141	0xc8	0.17175542
142	0xb5	-0.009541968
143	0xb5	-0.009541968
144	0xb2	-0.03816787
145	0xb5	-0.009541968
146	0xbd	0.06679378
147	0xb5	-0.009541968
148	0xb6	0.0
149	0xb4	-0.019083936
150	0xa8	-0.13358755
151	0xda	0.34351084
152	0xb5	-0.009541968
153	0xbd	0.06679378
154	0xbf	0.08587771
155	0xb3	-0.028625904
156	0xbf	0.08587771
157	0xb3	-0.028625904
158	0xbb	0.047709838
159	0xb0	-0.057251807
160	0xcc	0.2099233
161	0xb9	0.028625904
162	0xb3	-0.028625904
163	0x7e	-0.5343502
164	0xb6	0.0
165	0xbc	0.057251807
166	0xbf	0.08587771
167	0xbc	0.057251807
168	0xc1	0.10496165
169	0xb8	0.019083936
170	0xba	0.03816787
171	0xb6	0.0
172	0xb2	-0.03816787
173	0xb6	0.0
174	0xba	0.03816787
175	0xb6	0.0
176	0xc2	0.114503615
177	0xb3	-0.028625904
178	0xbc	0.057251807
179	0xc1	0.10496165
180	0xae	-0.07633574
181	0xb7	0.009541968
182	0xb9	0.028625904
183	0xb9	0.028625904
184	0xc5	0.14312951
185	0xc2	0.114503615
186	0xbd	0.06679378
187	0xbf	0.08587771
188	0xb0	-0.057251807
189	0xb1	-0.047709838
190	0xab	-0.10496165
191	0xb7	0.009541968
192	0xb8	0.019083936
193	0xa7	-0.14312951
194	0xb7	0.009541968
195	0xba	0.03816787
196	0xb6	0.0
197	0xb9	0.028625904
198	0xc6	0.15267149
199	0xb9	0.028625904
200	0xc2	0.114503615
201	0xbe	0.07633574
202	0xb9	0.028625904
203	0xb0	-0.057251807
204	0xb5	-0.009541968
205	0xb4	-0.019083936
206	0xb8	0.019083936
207	0xbc	0.057251807
208	0xc0	0.095419675
209	0xc5	0.14312951
210	0xa8	-0.13358755
211	0xb6	0.0
212	0xb6	0.0
213	0xb5	-0.009541968
214	0xbb	0.047709838
215	0xb9	0.028625904
216	0xbf	0.08587771
217	0xb1	-0.047709838
218	0xb5	-0.009541968
219	0xac	-0.095419675
220	0xb6	0.0
221	0xac	-0.095419675
222	0xc2	0.114503615
223	0xbb	0.047709838
224	0xab	-0.10496165
225	0xb5	-0.009541968
226	0x9b	-0.25763312
227	0xab	-0.10496165
228	0xc8	0.17175542
229	0xb5	-0.009541968
230	0xbc	0.057251807
231	0xc2	0.114503615
232	0xb6	0.0
233	0xbf	0.08587771
234	0xb7	0.009541968
235	0xbb	0.047709838
236	0xb2	-0.03816787
237	0xb0	-0.057251807
238	0xdf	0.3912207
239	0xb1	-0.047709838
240	0xb8	0.019083936
241	0xc2	0.114503615
242	0xbb	0.047709838
243	0xba	0.03816787
244	0x9c	-0.24809116
245	0xb7	0.009541968
246	0xb3	-0.028625904
247	0xbe	0.07633574
248	0xaf	-0.06679378
249	0xb5	-0.009541968
250	0xba	0.03816787
251	0xb6	0.0
252	0xb7	0.009541968
253	0xbf	0.08587771
254	0xb9	0.028625904
255	0xb8	0.019083936

BoxPredictor_1/ClassPredictor_depthwise/weights_quant/FakeQuantWithMinMaxVars u1 [1, 3, 3, 256] scale=0.021175966 zero_point=142
0	0x7d	-0.35999143
1	0x8a	-0.08470386
2	0xae	0.6776309
3	0xba	0.9317425
4	0x94	0.1270558
5	0xb7	0.8682146
6	0xc3	1.1223261
7	0x82	-0.2541116
8	0x5a	-1.1011503
9	0x8a	-0.08470386
10	0x9f	0.35999143
11	0x6d	-0.6988069
12	0x8d	-0.021175966
13	0x9f	0.35999143
14	0x7a	-0.4235193
15	0x8c	-0.04235193
16	0x88	-0.1270558
17	0x7e	-0.33881545
18	0x49	-1.4611416
19	0xa5	0.4870472
20	0x8b	-0.0635279
21	0x8f	0.021175966
22	0x8c	-0.04235193
23	0x89	-0.10587983
24	0x71	-0.614103
25	0x74	-0.55057514
26	0xdc	1.6517253
27	0x76	-0.5082232
28	0x8f	0.021175966
29	0x61	-0.95291847
30	0x74	-0.55057514
31	0x46	-1.5246695
32	0x93	0.10587983
33	0xb1	0.7411588
34	0x79	-0.4446953
35	0x9d	0.31763947
36	0x8a	-0.08470386
37	0xae	0.6776309
38	0x8f	0.021175966
39	0x81	-0.27528757
40	0x56	-1.1858541
41	0x6b	-0.7411588
42	0x51	-1.2917339
43	0xb3	0.78351074
44	0x82	-0.2541116
45	0xa5	0.4870472
46	0x90	0.04235193
47	0x7f	-0.31763947
48	0x7b	-0.40234333
49	0x92	0.08470386
50	0x6a	-0.76233476
51	0x79	-0.4446953
52	0x75	-0.52939916
53	0x89	-0.10587983
54	0x94	0.1270558
55	0x7b	-0.40234333
56	0x77	-0.4870472
57	0x82	-0.2541116
58	0x8a	-0.08470386
59	0x8e	0.0
60	0x80	-0.29646352
61	0xad	0.6564549
62	0x88	-0.1270558
63	0x7d	-0.35999143
64	0xb7	0.8682146
65	0xa9	0.57175106
66	0x8c	-0.04235193
67	0xa5	0.4870472
68	0x81	-0.27528757
69	0x88	-0.1270558
70	0x50	-1.3129098
71	0x98	0.21175966
72	0x99	0.23293562
73	0x75	-0.52939916
74	0xa6	0.5082232
75	0x76	-0.5082232
76	0x80	-0.29646352
77	0x80	-0.29646352
78	0x9b	0.27528757
79	0x9d	0.31763947
80	0xb6	0.8470386
81	0x97	0.19058369
82	0x74	-0.55057514
83	0xac	0.63527894
84	0xb9	0.9105665
85	0xb0	0.71998286
86	0x89	-0.10587983
87	0x6d	-0.6988069
88	0x72	-0.59292704
89	0x88	-0.1270558
90	0x89	-0.10587983
91	0x90	0.04235193
92	0xac	0.63527894
93	0xcd	1.3340858
94	0xb5	0.82586265
95	0x7b	-0.40234333
96	0x7d	-0.35999143
97	0x9d	0.31763947
98	0x6c	-0.71998286
99	0x84	-0.21175966
100	0x98	0.21175966
101	0x80	-0.29646352
102	0xb2	0.76233476
103	0x5d	-1.0376223
104	0x91	0.0635279
105	0x80	-0.29646352
106	0x8a	-0.08470386
107	0xd4	1.4823176
108	0xb5	0.82586265
109	0x8b	-0.0635279
110	0x83	-0.23293562
111	0xa5	0.4870472
112	0x88	-0.1270558
113	0xa0	0.38116738
114	0x89	-0.10587983
115	0x8a	-0.08470386
116	0x7b	-0.40234333
117	0x7e	-0.33881545
118	0x9d	0.31763947
119	0x96	0.16940773
120	0xb1	0.7411588
121	0xa7	0.52939916
122	0x8a	-0.08470386
123	0x76	-0.5082232
124	0xb8	0.8893906
125	0x8d	-0.021175966
126	0x98	0.21175966
127	0x6e	-0.6776309
128	0x8e	0.0
129	0xa0	0.38116738
130	0x69	-0.78351074
131	0xb0	0.71998286
132	0x78	-0.46587124
133	0x9f	0.35999143
134	0x81	-0.27528757
135	0x9b	0.27528757
136	0x45	-1.5458455
137	0xc9	1.249382
138	0x8d	-0.021175966
139	0x8a	-0.08470386
140	0x54	-1.228206
141	0x91	0.0635279
142	0x89	-0.10587983
143	0xaf	0.6988069
144	0xa5	0.4870472
145	0x81	-0.27528757
146	0xb1	0.7411588
147	0x9a	0.2541116
148	0x9a	0.2541116
149	0x83	-0.23293562
150	0xb6	0.8470386
151	0xb8	0.8893906
152	0x4a	-1.4399657
153	0x84	-0.21175966
154	0x8a	-0.08470386
155	0x81	-0.27528757
156	0x99	0.23293562
157	0x73	-0.57175106
158	0x9e	0.33881545
159	0x9c	0.29646352
160	0x81	-0.27528757
161	0x78	-0.46587124
162	0x7b	-0.40234333
163	0x93	0.10587983
164	0x6e	-0.6776309
165	0x8d	-0.021175966
166	0x84	-0.21175966
167	0x5f	-0.9952704
168	0xa0	0.38116738
169	0x7d	-0.35999143
170	0xc4	1.1435021
171	0x94	0.1270558
172	0x82	-0.2541116
173	0xb3	0.78351074
174	0x96	0.16940773
175	0x95	0.14823176
176	0x77	-0.4870472
177	0xaa	0.59292704
178	0x7e	-0.33881545
179	0xaa	0.59292704
180	0xa2	0.4235193
181	0x55	-1.20703
182	0xa2	0.4235193
183	0x89	-0.10587983
184	0x81	-0.27528757
185	0xa6	0.5082232
186	0x85	-0.19058369
187	0xa5	0.4870472
188	0xa4	0.46587124
189	0x7a	-0.4235193
190	0x8a	-0.08470386
191	0x88	-0.1270558
192	0x79	-0.4446953
193	0xae	0.6776309
194	0x8d	-0.021175966
195	0x96	0.16940773
196	0x92	0.08470386
197	0x98	0.21175966
198	0x8a	-0.08470386
199	0x8e	0.0
200	0x79	-0.4446953
201	0xa1	0.40234333
202	0x9f	0.35999143
203	0x97	0.19058369
204	0x9c	0.29646352
205	0x6f	-0.6564549
206	0xbb	0.95291847
207	0xac	0.63527894
208	0x89	-0.10587983
209	0x86	-0.16940773
210	0x86	-0.16940773
211	0xa8	0.55057514
212	0xa3	0.4446953
213	0x88	-0.1270558
214	0x80	-0.29646352
215	0x6b	-0.7411588
216	0x80	-0.29646352
217	0x88	-0.1270558
218	0xa4	0.46587124
219	0x7e	-0.33881545
220	0x8f	0.021175966
221	0x79	-0.4446953
222	0x97	0.19058369
223	0xa6	0.5082232
224	0x80	-0.29646352
225	0xa2	0.4235193
226	0x85	-0.19058369
227	0x96	0.16940773
228	0x91	0.0635279
229	0x87	-0.14823176
230	0x5f	-0.9952704
231	0x8c	-0.04235193
232	0x77	-0.4870472
233	0x7e	-0.33881545
234	0xa9	0.57175106
235	0x92	0.08470386
236	0x79	-0.4446953
237	0x8c	-0.04235193
238	0x82	-0.2541116
239	0xb6	0.8470386
240	0x99	0.23293562
241	0x97	0.19058369
242	0x4e	-1.3552618
243	0x91	0.0635279
244	0x89	-0.10587983
245	0x7b	-0.40234333
246	0x67	-0.82586265
247	0x71	-0.614103
248	0x68	-0.80468667
249	0x9e	0.33881545
250	0x88	-0.1270558
251	0x7c	-0.38116738
252	0x71	-0.614103
253	0x67	-0.82586265
254	0x60	-0.9740944
255	0x82	-0.2541116

BoxPredictor_2/BoxEncodingPredictor/weights_quant/FakeQuantWithMinMaxVars u1 [84, 1, 1, 128] scale=0.006659901 zero_point=125
0	0x7b	-0.013319802
1	0x7f	0.013319802
2	0x76	-0.046619304
3	0x7e	0.006659901
4	0x78	-0.033299506
5	0x72	-0.07325891
6	0x90	0.12653811
7	0x7f	0.013319802
8	0x7b	-0.013319802
9	0x7a	-0.019979702
10	0x89	0.07991881
11	0x6f	-0.09323861
12	0x88	0.07325891
13	0x74	-0.05993911
14	0x9e	0.21977672
15	0x81	0.026639603
16	0x7f	0.013319802
17	0x76	-0.046619304
18	0x7e	0.006659901
19	0x72	-0.07325891
20	0x7c	-0.006659901
21	0x89	0.07991881
22	0x7d	0.0
23	0x7e	0.006659901
24	0x62	-0.17981732
25	0x75	-0.053279206
26	0x7e	0.006659901
27	0x7f	0.013319802
28	0x7c	-0.006659901
29	0x7c	-0.006659901
30	0x8a	0.08657871
31	0x7a	-0.019979702
32	0x82	0.033299506
33	0x7c	-0.006659901
34	0x80	0.019979702
35	0x7e	0.006659901
36	0x86	0.05993911
37	0x8f	0.11987822
38	0x7f	0.013319802
39	0x74	-0.05993911
40	0x7e	0.006659901
41	0x94	0.15317772
42	0x80	0.019979702
43	0x7d	0.0
44	0xa6	0.27305594
45	0x6e	-0.09989851
46	0x93	0.14651781
47	0x93	0.14651781
48	0x80	0.019979702
49	0x7d	0.0
50	0x5b	-0.22643663
51	0x93	0.14651781
52	0x7c	-0.006659901
53	0x4e	-0.31301534
54	0x7b	-0.013319802
55	0x7c	-0.006659901
56	0x78	-0.033299506
57	0x7d	0.0
58	0x86	0.05993911
59	0x7d	0.0
60	0x77	-0.039959405
61	0x73	-0.06659901
62	0x7c	-0.006659901
63	0x7c	-0.006659901
64	0x7c	-0.006659901
65	0x84	0.046619304
66	0x7e	0.006659901
67	0x73	-0.06659901
68	0x80	0.019979702
69	0x74	-0.05993911
70	0x81	0.026639603
71	0x7d	0.0
72	0x7f	0.013319802
73	0x77	-0.039959405
74	0x80	0.019979702
75	0x79	-0.026639603
76	0x85	0.053279206
77	0x82	0.033299506
78	0x81	0.026639603
79	0x92	0.13985792
80	0x62	-0.17981732
81	0x79	-0.026639603
82	0x81	0.026639603
83	0x73	-0.06659901
84	0x5f	-0.19979702
85	0x7e	0.006659901
86	0x7b	-0.013319802
87	0x77	-0.039959405
88	0x7b	-0.013319802
89	0x7e	0.006659901
90	0x7e	0.006659901
91	0x7b	-0.013319802
92	0x7e	0.006659901
93	0x80	0.019979702
94	0x78	-0.033299506
95	0xb1	0.34631485
96	0x7b	-0.013319802
97	0x7a	-0.019979702
98	0x7c	-0.006659901
99	0x83	0.039959405
100	0x7e	0.006659901
101	0x81	0.026639603
102	0x7e	0.006659901
103	0x75	-0.053279206
104	0x94	0.15317772
105	0x68	-0.13985792
106	0x76	-0.046619304
107	0x77	-0.039959405
108	0x80	0.019979702
109	0x4e	-0.31301534
110	0x8d	0.10655841
111	0x63	-0.17315742
112	0x80	0.019979702
113	0x7b	-0.013319802
114	0x80	0.019979702
115	0x7f	0.013319802
116	0x75	-0.053279206
117	0x7f	0.013319802
118	0x8b	0.09323861
119	0x9e	0.21977672
120	0x88	0.07325891
121	0x7d	0.0
122	0x7d	0.0
123	0x96	0.16649751
124	0x68	-0.13985792
125	0x7d	0.0
126	0x70	-0.08657871
127	0x7a	-0.019979702
128	0x79	-0.026639603
129	0x86	0.05993911
130	0x7f	0.013319802
131	0x74	-0.05993911
132	0x4b	-0.33299503
133	0x80	0.019979702
134	0x77	-0.039959405
135	0x96	0.16649751
136	0x79	-0.026639603
137	0x79	-0.026639603
138	0x7c	-0.006659901
139	0x77	-0.039959405
140	0x8a	0.08657871
141	0x7d	0.0
142	0x7b	-0.013319802
143	0x8f	0.11987822
144	0x7d	0.0
145	0x80	0.019979702
146	0x7e	0.006659901
147	0x7d	0.0
148	0x7b	-0.013319802
149	0x76	-0.046619304
150	0x73	-0.06659901
151	0x85	0.053279206
152	0x7f	0.013319802
153	0x79	-0.026639603
154	0x90	0.12653811
155	0x7e	0.006659901
156	0x95	0.15983762
157	0x7d	0.0
158	0x75	-0.053279206
159	0x7c	-0.006659901
160	0x7a	-0.019979702
161	0x78	-0.033299506
162	0x7b	-0.013319802
163	0x7b	-0.013319802
164	0x7d	0.0
165	0x86	0.05993911
166	0x80	0.019979702
167	0x76	-0.046619304
168	0x86	0.05993911
169	0x78	-0.033299506
170	0x7e	0.006659901
171	0x7d	0.0
172	0x7b	-0.013319802
173	0x7f	0.013319802
174	0x7f	0.013319802
175	0x7d	0.0
176	0x81	0.026639603
177	0xae	0.32633513
178	0x7d	0.0
179	0x7d	0.0
180	0x79	-0.026639603
181	0x7c	-0.006659901
182	0x7c	-0.006659901
183	0x7f	0.013319802
184	0x7b	-0.013319802
185	0x81	0.026639603
186	0x88	0.07325891
187	0x76	-0.046619304
188	0x77	-0.039959405
189	0x84	0.046619304
190	0x7b	-0.013319802
191	0x75	-0.053279206
192	0x85	0.053279206
193	0x83	0.039959405
194	0x4a	-0.33965495
195	0x73	-0.06659901
196	0x89	0.07991881
197	0x81	0.026639603
198	0x7e	0.006659901
199	0x75	-0.053279206
200	0x4d	-0.31967524
201	0x82	0.033299506
202	0x89	0.07991881
203	0x7a	-0.019979702
204	0x72	-0.07325891
205	0x6f	-0.09323861
206	0x7b	-0.013319802
207	0x90	0.12653811
208	0x7c	-0.006659901
209	0x82	0.033299506
210	0x77	-0.039959405
211	0x81	0.026639603
212	0x7a	-0.019979702
213	0x85	0.053279206
214	0x7a	-0.019979702
215	0x78	-0.033299506
216	0x7c	-0.006659901
217	0x7e	0.006659901
218	0x83	0.039959405
219	0x80	0.019979702
220	0x7a	-0.019979702
221	0x62	-0.17981732
222	0x7a	-0.019979702
223	0x7d	0.0
224	0x55	-0.26639605
225	0x7c	-0.006659901
226	0x6d	-0.10655841
227	0x74	-0.05993911
228	0x80	0.019979702
229	0x84	0.046619304
230	0xb1	0.34631485
231	0x83	0.039959405
232	0x8e	0.113218315
233	0x7e	0.006659901
234	0x82	0.033299506
235	0x7d	0.0
236	0x82	0.033299506
237	0x81	0.026639603
238	0x7c	-0.006659901
239	0x65	-0.15983762
240	0x83	0.039959405
241	0xa1	0.23975644
242	0x80	0.019979702
243	0x7d	0.0
244	0x82	0.033299506
245	0x6d	-0.10655841
246	0x7a	-0.019979702
247	0x75	-0.053279206
248	0x71	-0.07991881
249	0x7e	0.006659901
250	0x7c	-0.006659901
251	0x7f	0.013319802
252	0x7e	0.006659901
253	0x7c	-0.006659901
254	0x79	-0.026639603
255	0x97	0.17315742
