.docu/my-koda-8-8-0.xapk.out/unknown/cz.skodaauto.myskoda/assets/mlkit_barcode_models/oned_feature_extractor_mobile.tflite (tflite, 276552 bytes, 28 tensors)

Model/Mobilenet/Mobilenet/MobilenetV1/Conv2d_0/weights_quant/FakeQuantWithMinMaxVars u1 [1, 3, 3, 16] scale=0.06843427 zero_point=111
0	0x4c	-2.3951993
1	0x6f	0.0
2	0x74	0.34217134
3	0x2f	-4.379793
4	0x78	0.6159084
5	0x77	0.54747415
6	0x67	-0.54747415
7	0x72	0.2053028
8	0x7e	1.026514
9	0x73	0.27373707
10	0x63	-0.8212112
11	0x78	0.6159084
12	0x6d	-0.13686854
13	0x6d	-0.13686854
14	0x64	-0.752777
15	0x6a	-0.34217134
16	0xae	4.311359
17	0x70	0.06843427
18	0xff	9.854534
19	0x25	-5.064136
20	0x69	-0.4106056
21	0x6f	0.0
22	0x64	-0.752777
23	0x82	1.3002511
24	0x4f	-2.1898966
25	0x6e	-0.06843427
26	0x6e	-0.06843427
27	0x62	-0.88964546
28	0x76	0.47903988
29	0x6d	-0.13686854
30	0x76	0.47903988
31	0x82	1.3002511
32	0x64	-0.752777
33	0x6e	-0.06843427
34	0x2e	-4.4482274
35	0xf3	9.033323
36	0x63	-0.8212112
37	0x6f	0.0
38	0x4c	-2.3951993
39	0x66	-0.6159084
40	0x67	-0.54747415
41	0x69	-0.4106056
42	0x6c	-0.2053028
43	0x69	-0.4106056
44	0x69	-0.4106056
45	0x68	-0.47903988
46	0x83	1.3686854
47	0x63	-0.8212112
48	0x95	2.6005023
49	0x6c	-0.2053028
50	0x48	-2.6689365
51	0xaa	4.037622
52	0x68	-0.47903988
53	0x6a	-0.34217134
54	0x74	0.34217134
55	0x6e	-0.06843427
56	0x98	2.805805
57	0x71	0.13686854
58	0x7c	0.88964546
59	0x84	1.4371196
60	0x68	-0.47903988
61	0x69	-0.4106056
62	0x5e	-1.1633825
63	0x7e	1.026514
64	0x07	-7.1171637
65	0x6b	-0.27373707
66	0xf2	8.96489
67	0x31	-4.2429247
68	0x7a	0.752777
69	0x68	-0.47903988
70	0x64	-0.752777
71	0x7f	1.0949483
72	0x52	-1.9845937
73	0x71	0.13686854
74	0x74	0.34217134
75	0x6c	-0.2053028
76	0x85	1.505554
77	0x69	-0.4106056
78	0x67	-0.54747415
79	0x82	1.3002511
80	0x86	1.5739882
81	0x6c	-0.2053028
82	0x7e	1.026514
83	0x78	0.6159084
84	0x96	2.6689365
85	0x68	-0.47903988
86	0x65	-0.6843427
87	0x57	-1.6424224
88	0x76	0.47903988
89	0x71	0.13686854
90	0x78	0.6159084
91	0x5e	-1.1633825
92	0x6a	-0.34217134
93	0x6f	0.0
94	0x80	1.1633825
95	0x46	-2.805805
96	0x8d	2.053028
97	0x6d	-0.13686854
98	0x3c	-3.4901476
99	0xdf	7.664638
100	0x6e	-0.06843427
101	0x61	-0.95807976
102	0x80	1.1633825
103	0x65	-0.6843427
104	0x8a	1.8477253
105	0x6d	-0.13686854
106	0x7a	0.752777
107	0x80	1.1633825
108	0x67	-0.54747415
109	0x66	-0.6159084
110	0x62	-0.88964546
111	0x71	0.13686854
112	0x32	-4.1744905
113	0x6a	-0.34217134
114	0x40	-3.2164106
115	0x60	-1.026514
116	0x69	-0.4106056
117	0x67	-0.54747415
118	0x7f	1.0949483
119	0x7e	1.026514
120	0x58	-1.5739882
121	0x74	0.34217134
122	0x71	0.13686854
123	0x7d	0.95807976
124	0x7e	1.026514
125	0x6c	-0.2053028
126	0x60	-1.026514
127	0x7e	1.026514
128	0x91	2.326765
129	0x6d	-0.13686854
130	0x56	-1.7108567
131	0x01	-7.5277696
132	0x6b	-0.27373707
133	0x6a	-0.34217134
134	0x93	2.4636335
135	0x65	-0.6843427
136	0x73	0.27373707
137	0x79	0.6843427
138	0x78	0.6159084
139	0x6e	-0.06843427
140	0x6b	-0.27373707
141	0x6f	0.0
142	0x76	0.47903988
143	0x5e	-1.1633825

Model/Mobilenet/Mobilenet/MobilenetV1/Conv2d_10_depthwise/weights_quant/FakeQuantWithMinMaxVars u1 [1, 3, 3, 128] scale=0.019187266 zero_point=103
0	0x69	0.038374532
1	0x75	0.2686217
2	0x65	-0.038374532
3	0x63	-0.076749064
4	0x66	-0.019187266
5	0x6a	0.0575618
6	0x57	-0.30699626
7	0x62	-0.09593633
8	0x6c	0.09593633
9	0x63	-0.076749064
10	0x61	-0.1151236
11	0x64	-0.0575618
12	0x5f	-0.15349813
13	0x5c	-0.21105993
14	0x5b	-0.2302472
15	0x6e	0.13431086
16	0x69	0.038374532
17	0x85	0.57561797
18	0x69	0.038374532
19	0x5d	-0.19187266
20	0x66	-0.019187266
21	0x58	-0.28780898
22	0x5e	-0.1726854
23	0x67	0.0
24	0x76	0.28780898
25	0xbd	1.6501049
26	0xb2	1.439045
27	0x61	-0.1151236
28	0x4e	-0.47968164
29	0x69	0.038374532
30	0x49	-0.57561797
31	0x61	-0.1151236
32	0x89	0.65236706
33	0x47	-0.6139925
34	0x62	-0.09593633
35	0x5d	-0.19187266
36	0x61	-0.1151236
37	0x6e	0.13431086
38	0x5e	-0.1726854
39	0x57	-0.30699626
40	0x74	0.24943446
41	0x58	-0.28780898
42	0x64	-0.0575618
43	0x6c	0.09593633
44	0x75	0.2686217
45	0x6a	0.0575618
46	0x73	0.2302472
47	0x67	0.0
48	0xa6	1.2087978
49	0x53	-0.3837453
50	0x4c	-0.51805615
51	0x62	-0.09593633
52	0x74	0.24943446
53	0x3e	-0.7866779
54	0x57	-0.30699626
55	0x5a	-0.24943446
56	0x5d	-0.19187266
57	0x62	-0.09593633
58	0x6f	0.15349813
59	0x61	-0.1151236
60	0x5d	-0.19187266
61	0x66	-0.019187266
62	0x69	0.038374532
63	0x4f	-0.4604944
64	0x5e	-0.1726854
65	0x62	-0.09593633
66	0x6a	0.0575618
67	0x73	0.2302472
68	0x66	-0.019187266
69	0x64	-0.0575618
70	0x53	-0.3837453
71	0x77	0.30699626
72	0x5f	-0.15349813
73	0x62	-0.09593633
74	0x69	0.038374532
75	0x32	-1.0169251
76	0x6d	0.1151236
77	0x66	-0.019187266
78	0x5e	-0.1726854
79	0x68	0.019187266
80	0x61	-0.1151236
81	0x6c	0.09593633
82	0x56	-0.32618353
83	0xb4	1.4774195
84	0x5e	-0.1726854
85	0x6a	0.0575618
86	0x63	-0.076749064
87	0x34	-0.97855055
88	0x67	0.0
89	0x66	-0.019187266
90	0x56	-0.32618353
91	0x70	0.1726854
92	0x61	-0.1151236
93	0x47	-0.6139925
94	0x71	0.19187266
95	0x64	-0.0575618
96	0x75	0.2686217
97	0x63	-0.076749064
98	0x1b	-1.4582322
99	0x6a	0.0575618
100	0x67	0.0
101	0x72	0.21105993
102	0x66	-0.019187266
103	0xd0	2.014663
104	0x63	-0.076749064
105	0x67	0.0
106	0x69	0.038374532
107	0x69	0.038374532
108	0x88	0.6331798
109	0x5d	-0.19187266
110	0x4e	-0.47968164
111	0x97	0.9209888
112	0x70	0.1726854
113	0x56	-0.32618353
114	0x70	0.1726854
115	0x85	0.57561797
116	0x49	-0.57561797
117	0x6f	0.15349813
118	0x63	-0.076749064
119	0x6b	0.076749064
120	0x68	0.019187266
121	0x58	-0.28780898
122	0x62	-0.09593633
123	0x62	-0.09593633
124	0x5f	-0.15349813
125	0x58	-0.28780898
126	0x55	-0.3453708
127	0x58	-0.28780898
128	0xb0	1.4006704
129	0xaf	1.3814832
130	0xcc	1.9379139
131	0x5d	-0.19187266
132	0x58	-0.28780898
133	0x6d	0.1151236
134	0x66	-0.019187266
135	0xaf	1.3814832
136	0x6b	0.076749064
137	0x45	-0.65236706
138	0x64	-0.0575618
139	0xb4	1.4774195
140	0x4b	-0.5372434
141	0x6a	0.0575618
142	0xab	1.3047341
143	0x59	-0.2686217
144	0x69	0.038374532
145	0x5a	-0.24943446
146	0x62	-0.09593633
147	0x90	0.7866779
148	0x57	-0.30699626
149	0x5b	-0.2302472
150	0x60	-0.13431086
151	0x54	-0.36455804
152	0x2a	-1.1704233
153	0x79	0.3453708
154	0x6c	0.09593633
155	0x5f	-0.15349813
156	0x4c	-0.51805615
157	0x73	0.2302472
158	0x63	-0.076749064
159	0xaf	1.3814832
160	0x6b	0.076749064
161	0x78	0.32618353
162	0x65	-0.038374532
163	0xab	1.3047341
164	0x98	0.940176
165	0xad	1.3431087
166	0x6e	0.13431086
167	0x36	-0.940176
168	0x84	0.5564307
169	0x92	0.82505244
170	0x88	0.6331798
171	0x65	-0.038374532
172	0x4c	-0.51805615
173	0x42	-0.7099289
174	0xa6	1.2087978
175	0x72	0.21105993
176	0x6b	0.076749064
177	0x62	-0.09593633
178	0x4e	-0.47968164
179	0xa2	1.1320487
180	0x72	0.21105993
181	0x5f	-0.15349813
182	0x59	-0.2686217
183	0x45	-0.65236706
184	0x6a	0.0575618
185	0xa5	1.1896105
186	0x93	0.8442397
187	0xba	1.5925431
188	0x7f	0.4604944
189	0x6a	0.0575618
190	0x80	0.47968164
191	0x58	-0.28780898
192	0xa4	1.1704233
193	0x3a	-0.863427
194	0x6f	0.15349813
195	0x53	-0.3837453
196	0x5f	-0.15349813
197	0xa5	1.1896105
198	0x7e	0.44130713
199	0xa5	1.1896105
200	0x5d	-0.19187266
201	0x87	0.6139925
202	0xae	1.3622959
203	0x6b	0.076749064
204	0xae	1.3622959
205	0xa5	1.1896105
206	0x89	0.65236706
207	0x76	0.28780898
208	0x5e	-0.1726854
209	0x48	-0.59480524
210	0x65	-0.038374532
211	0x6c	0.09593633
212	0x54	-0.36455804
213	0x74	0.24943446
214	0x46	-0.6331798
215	0x3e	-0.7866779
216	0xa9	1.2663596
217	0x5d	-0.19187266
218	0x53	-0.3837453
219	0x9f	1.0744869
220	0x97	0.9209888
221	0x3e	-0.7866779
222	0x82	0.51805615
223	0x4c	-0.51805615
224	0x61	-0.1151236
225	0x61	-0.1151236
226	0xaf	1.3814832
227	0x9f	1.0744869
228	0xff	2.9164643
229	0x62	-0.09593633
230	0x62	-0.09593633
231	0x9c	1.0169251
232	0xa4	1.1704233
233	0x40	-0.74830335
234	0x24	-1.2855468
235	0xa6	1.2087978
236	0x53	-0.3837453
237	0x68	0.019187266
238	0x53	-0.3837453
239	0x83	0.5372434
240	0x3c	-0.82505244
241	0x64	-0.0575618
242	0x90	0.7866779
243	0x7f	0.4604944
244	0x4e	-0.47968164
245	0x7c	0.40293258
246	0xa6	1.2087978
247	0x4b	-0.5372434
248	0xa0	1.0936742
249	0x3d	-0.80586517
250	0xc0	1.7076666
251	0x68	0.019187266
252	0x56	-0.32618353
253	0x94	0.863427
254	0x9a	0.97855055
255	0x5b	-0.2302472

Model/Mobilenet/Mobilenet/MobilenetV1/Conv2d_10_pointwise/weights_quant/FakeQuantWithMinMaxVars u1 [128, 1, 1, 128] scale=0.0048160027 zero_point=138
0	0x70	-0.12521607
1	0x92	0.03852802
2	0xa0	0.10595206
3	0x91	0.03371202
4	0x81	-0.043344025
5	0x7a	-0.07705604
6	0x9f	0.10113606
7	0x81	-0.043344025
8	0x7c	-0.06742404
9	0x96	0.05779203
10	0x99	0.07224004
11	0x73	-0.110768065
12	0x94	0.048160028
13	0x9c	0.08668805
14	0x8e	0.01926401
15	0xab	0.15892808
16	0x88	-0.009632005
17	0x91	0.03371202
18	0x7d	-0.06260803
19	0x62	-0.19264011
20	0x8c	0.009632005
21	0x8a	0.0
22	0x79	-0.081872046
23	0x89	-0.0048160027
24	0x84	-0.028896015
25	0x64	-0.1830081
26	0x6f	-0.13003208
27	0x88	-0.009632005
28	0x7c	-0.06742404
29	0xb3	0.1974561
30	0x88	-0.009632005
31	0x94	0.048160028
32	0x7c	-0.06742404
33	0x7f	-0.05297603
34	0x9c	0.08668805
35	0x88	-0.009632005
36	0xc7	0.29377615
37	0x76	-0.096320055
38	0x9a	0.07705604
39	0x99	0.07224004
40	0x80	-0.048160028
41	0x8e	0.01926401
42	0x6f	-0.13003208
43	0x79	-0.081872046
44	0x95	0.05297603
45	0x74	-0.10595206
46	0x9d	0.09150405
47	0x9a	0.07705604
48	0x93	0.043344025
49	0xbb	0.23598413
50	0x82	-0.03852802
51	0x77	-0.09150405
52	0x86	-0.01926401
53	0xc1	0.26488015
54	0x7c	-0.06742404
55	0x83	-0.03371202
56	0x94	0.048160028
57	0x99	0.07224004
58	0x91	0.03371202
59	0x6f	-0.13003208
60	0x90	0.028896015
61	0x84	-0.028896015
62	0x7c	-0.06742404
63	0x98	0.06742404
64	0x8b	0.0048160027
65	0x8a	0.0
66	0x89	-0.0048160027
67	0x8f	0.024080014
68	0x89	-0.0048160027
69	0x8f	0.024080014
70	0x8b	0.0048160027
71	0x6e	-0.13484807
72	0x7a	-0.07705604
73	0x8a	0.0
74	0x90	0.028896015
75	0x97	0.06260803
76	0x75	-0.10113606
77	0xb0	0.1830081
78	0x88	-0.009632005
79	0x77	-0.09150405
80	0x9e	0.096320055
81	0x8e	0.01926401
82	0x88	-0.009632005
83	0x8c	0.009632005
84	0x7c	-0.06742404
85	0x97	0.06260803
86	0x73	-0.110768065
87	0x91	0.03371202
88	0x96	0.05779203
89	0x7a	-0.07705604
90	0x7e	-0.05779203
91	0x95	0.05297603
92	0x70	-0.12521607
93	0x8b	0.0048160027
94	0x9c	0.08668805
95	0x9e	0.096320055
96	0x6d	-0.13966408
97	0x97	0.06260803
98	0x81	-0.043344025
99	0x72	-0.11558406
100	0x89	-0.0048160027
101	0x8c	0.009632005
102	0x89	-0.0048160027
103	0x94	0.048160028
104	0x7e	-0.05779203
105	0x6f	-0.13003208
106	0x81	-0.043344025
107	0x8d	0.014448008
108	0x94	0.048160028
109	0x8c	0.009632005
110	0x7e	-0.05779203
111	0x96	0.05779203
112	0x8b	0.0048160027
113	0x89	-0.0048160027
114	0x91	0.03371202
115	0xb1	0.1878241
116	0x77	-0.09150405
117	0x6f	-0.13003208
118	0x84	-0.028896015
119	0x88	-0.009632005
120	0xa6	0.13484807
121	0x82	-0.03852802
122	0x7c	-0.06742404
123	0x84	-0.028896015
124	0x87	-0.014448008
125	0x6e	-0.13484807
126	0x95	0.05297603
127	0xac	0.16374409
128	0xa3	0.12040006
129	0x84	-0.028896015
130	0x80	-0.048160028
131	0x8c	0.009632005
132	0x76	-0.096320055
133	0x96	0.05779203
134	0x7c	-0.06742404
135	0x81	-0.043344025
136	0x78	-0.08668805
137	0x85	-0.024080014
138	0x8c	0.009632005
139	0x8c	0.009632005
140	0x90	0.028896015
141	0x8f	0.024080014
142	0x82	-0.03852802
143	0x84	-0.028896015
144	0xa3	0.12040006
145	0x88	-0.009632005
146	0x7f	-0.05297603
147	0x80	-0.048160028
148	0x80	-0.048160028
149	0x86	-0.01926401
150	0x7f	-0.05297603
151	0x92	0.03852802
152	0x9a	0.07705604
153	0x98	0.06742404
154	0x93	0.043344025
155	0x84	-0.028896015
156	0x7e	-0.05779203
157	0xa2	0.11558406
158	0x9c	0.08668805
159	0x90	0.028896015
160	0x8e	0.01926401
161	0x85	-0.024080014
162	0x81	-0.043344025
163	0x5f	-0.20708811
164	0x89	-0.0048160027
165	0x92	0.03852802
166	0x89	-0.0048160027
167	0x8e	0.01926401
168	0xa1	0.110768065
169	0x7d	-0.06260803
170	0x82	-0.03852802
171	0x7f	-0.05297603
172	0x95	0.05297603
173	0x93	0.043344025
174	0x9b	0.081872046
175	0x76	-0.096320055
176	0x69	-0.15892808
177	0x7f	-0.05297603
178	0x8b	0.0048160027
179	0x8d	0.014448008
180	0x8a	0.0
181	0x82	-0.03852802
182	0x87	-0.014448008
183	0x79	-0.081872046
184	0x87	-0.014448008
185	0x8a	0.0
186	0x78	-0.08668805
187	0x8f	0.024080014
188	0x8c	0.009632005
189	0x7c	-0.06742404
190	0x98	0.06742404
191	0x85	-0.024080014
192	0x8f	0.024080014
193	0x9f	0.10113606
194	0x8a	0.0
195	0x94	0.048160028
196	0x80	-0.048160028
197	0x9f	0.10113606
198	0x80	-0.048160028
199	0x85	-0.024080014
200	0x9f	0.10113606
201	0x78	-0.08668805
202	0x9e	0.096320055
203	0xa3	0.12040006
204	0x88	-0.009632005
205	0x85	-0.024080014
206	0x7e	-0.05779203
207	0x89	-0.0048160027
208	0x7f	-0.05297603
209	0xa5	0.13003208
210	0x8c	0.009632005
211	0x99	0.07224004
212	0x8f	0.024080014
213	0xa7	0.13966408
214	0x85	-0.024080014
215	0x87	-0.014448008
216	0x84	-0.028896015
217	0x8d	0.014448008
218	0x8d	0.014448008
219	0x77	-0.09150405
220	0x93	0.043344025
221	0x8e	0.01926401
222	0x8a	0.0
223	0x8e	0.01926401
224	0x74	-0.10595206
225	0x81	-0.043344025
226	0x79	-0.081872046
227	0x78	-0.08668805
228	0xa0	0.10595206
229	0x85	-0.024080014
230	0x8a	0.0
231	0x99	0.07224004
232	0x8c	0.009632005
233	0x7a	-0.07705604
234	0x81	-0.043344025
235	0x97	0.06260803
236	0x8b	0.0048160027
237	0x83	-0.03371202
238	0x86	-0.01926401
239	0x8f	0.024080014
240	0xa4	0.12521607
241	0x90	0.028896015
242	0x99	0.07224004
243	0x85	-0.024080014
244	0x91	0.03371202
245	0x87	-0.014448008
246	0x9a	0.07705604
247	0x7e	-0.05779203
248	0x7d	-0.06260803
249	0x8f	0.024080014
250	0x8e	0.01926401
251	0x83	-0.03371202
252	0x85	-0.024080014
253	0x79	-0.081872046
254	0x9b	0.081872046
255	0x94	0.048160028

Model/Mobilenet/Mobilenet/MobilenetV1/Conv2d_11_depthwise/weights_quant/FakeQuantWithMinMaxVars u1 [1, 3, 3, 128] scale=0.021277994 zero_point=125
0	0x71	-0.25533593
1	0x86	0.19150195
2	0x76	-0.14894596
3	0x5b	-0.7234518
4	0xcb	1.6596835
5	0xb3	1.1490116
6	0x76	-0.14894596
7	0x74	-0.19150195
8	0x81	0.085111976
9	0x78	-0.10638997
10	0x6f	-0.2978919
11	0x84	0.14894596
12	0x7d	0.0
13	0x65	-0.51067185
14	0x7c	-0.021277994
15	0x77	-0.12766796
16	0x76	-0.14894596
17	0x74	-0.19150195
18	0x73	-0.21277994
19	0x95	0.51067185
20	0xab	0.9787877
21	0x78	-0.10638997
22	0xb2	1.1277337
23	0x7f	0.042555988
24	0x75	-0.17022395
25	0x6a	-0.40428188
26	0x7e	0.021277994
27	0x85	0.17022395
28	0x85	0.17022395
29	0x70	-0.27661392
30	0x8d	0.3404479
31	0x49	-1.1064557
32	0x6d	-0.3404479
33	0x85	0.17022395
34	0x65	-0.51067185
35	0x5d	-0.6808958
36	0x7e	0.021277994
37	0x81	0.085111976
38	0x96	0.5319499
39	0x5d	-0.6808958
40	0x8d	0.3404479
41	0x89	0.25533593
42	0x86	0.19150195
43	0x83	0.12766796
44	0x7d	0.0
45	0x9c	0.6596178
46	0x69	-0.42555988
47	0xb1	1.1064557
48	0x80	0.06383398
49	0x89	0.25533593
50	0x76	-0.14894596
51	0x8a	0.27661392
52	0x7d	0.0
53	0x7a	-0.06383398
54	0x6f	-0.2978919
55	0xcc	1.6809615
56	0x75	-0.17022395
57	0x78	-0.10638997
58	0x80	0.06383398
59	0x70	-0.27661392
60	0x6e	-0.3191699
61	0x7a	-0.06383398
62	0x91	0.42555988
63	0x77	-0.12766796
64	0x87	0.21277994
65	0x60	-0.61706185
66	0x8b	0.2978919
67	0x6d	-0.3404479
68	0x63	-0.55322784
69	0x79	-0.085111976
70	0x7b	-0.042555988
71	0x69	-0.42555988
72	0x78	-0.10638997
73	0x81	0.085111976
74	0x78	-0.10638997
75	0x87	0.21277994
76	0x73	-0.21277994
77	0x6a	-0.40428188
78	0xff	2.7661393
79	0x71	-0.25533593
80	0x77	-0.12766796
81	0xa7	0.89367574
82	0x7c	-0.021277994
83	0x76	-0.14894596
84	0xb5	1.1915677
85	0x83	0.12766796
86	0x72	-0.23405793
87	0x74	-0.19150195
88	0x76	-0.14894596
89	0x7b	-0.042555988
90	0x6f	-0.2978919
91	0x79	-0.085111976
92	0x63	-0.55322784
93	0x72	-0.23405793
94	0x83	0.12766796
95	0x7d	0.0
96	0x8e	0.3617259
97	0x79	-0.085111976
98	0x80	0.06383398
99	0x79	-0.085111976
100	0x6b	-0.3830039
101	0x81	0.085111976
102	0x7f	0.042555988
103	0x9c	0.6596178
104	0x65	-0.51067185
105	0x71	-0.25533593
106	0x89	0.25533593
107	0x8c	0.3191699
108	0x7f	0.042555988
109	0x68	-0.44683787
110	0x97	0.55322784
111	0x7a	-0.06383398
112	0x8a	0.27661392
113	0x93	0.46811587
114	0x82	0.10638997
115	0x7d	0.0
116	0x7e	0.021277994
117	0x79	-0.085111976
118	0x77	-0.12766796
119	0x86	0.19150195
120	0x7f	0.042555988
121	0x84	0.14894596
122	0x7c	-0.021277994
123	0x9a	0.61706185
124	0x7c	-0.021277994
125	0x7f	0.042555988
126	0x77	-0.12766796
127	0x7c	-0.021277994
128	0x50	-0.95750976
129	0x82	0.10638997
130	0x9f	0.7234518
131	0x41	-1.2766796
132	0x77	-0.12766796
133	0x91	0.42555988
134	0x4e	-1.0000657
135	0x6d	-0.3404479
136	0x83	0.12766796
137	0x77	-0.12766796
138	0xb2	1.1277337
139	0x6a	-0.40428188
140	0xae	1.0426217
141	0x64	-0.5319499
142	0x60	-0.61706185
143	0x5a	-0.74472976
144	0x77	-0.12766796
145	0x70	-0.27661392
146	0x9b	0.6383398
147	0x75	-0.17022395
148	0x95	0.51067185
149	0x76	-0.14894596
150	0x6a	-0.40428188
151	0xb9	1.2766796
152	0x71	-0.25533593
153	0x80	0.06383398
154	0x86	0.19150195
155	0xb9	1.2766796
156	0x76	-0.14894596
157	0x6b	-0.3830039
158	0x86	0.19150195
159	0x5d	-0.6808958
160	0x71	-0.25533593
161	0xa5	0.85111976
162	0x66	-0.48939386
163	0x73	-0.21277994
164	0xa0	0.74472976
165	0x56	-0.82984173
166	0x8f	0.3830039
167	0x4b	-1.0638998
168	0xaa	0.95750976
169	0x8e	0.3617259
170	0x6d	-0.3404479
171	0xb1	1.1064557
172	0x89	0.25533593
173	0xa1	0.7660078
174	0x6b	-0.3830039
175	0x7e	0.021277994
176	0xba	1.2979577
177	0x8f	0.3830039
178	0x6f	-0.2978919
179	0xb6	1.2128457
180	0x71	-0.25533593
181	0x73	-0.21277994
182	0x65	-0.51067185
183	0xe0	2.1065214
184	0x78	-0.10638997
185	0x5d	-0.6808958
186	0x95	0.51067185
187	0x5c	-0.7021738
188	0x64	-0.5319499
189	0x78	-0.10638997
190	0x64	-0.5319499
191	0x63	-0.55322784
192	0x76	-0.14894596
193	0x44	-1.2128457
194	0xb7	1.2341237
195	0x83	0.12766796
196	0x5c	-0.7021738
197	0x79	-0.085111976
198	0xa6	0.8723978
199	0xd5	1.8724635
200	0xad	1.0213437
201	0x7a	-0.06383398
202	0x61	-0.5957838
203	0x89	0.25533593
204	0x45	-1.1915677
205	0x64	-0.5319499
206	0xa5	0.85111976
207	0x6e	-0.3191699
208	0x90	0.40428188
209	0x4f	-0.9787877
210	0x7b	-0.042555988
211	0xbd	1.3617916
212	0x8c	0.3191699
213	0x82	0.10638997
214	0x6e	-0.3191699
215	0xc4	1.5107375
216	0x8d	0.3404479
217	0x7b	-0.042555988
218	0x90	0.40428188
219	0x59	-0.7660078
220	0x8a	0.27661392
221	0x5b	-0.7234518
222	0x6d	-0.3404479
223	0x94	0.48939386
224	0x93	0.46811587
225	0xbd	1.3617916
226	0x75	-0.17022395
227	0x86	0.19150195
228	0x4e	-1.0000657
229	0x70	-0.27661392
230	0x59	-0.7660078
231	0xaa	0.95750976
232	0x6e	-0.3191699
233	0x72	-0.23405793
234	0x48	-1.1277337
235	0x8f	0.3830039
236	0x5a	-0.74472976
237	0x7b	-0.042555988
238	0x7c	-0.021277994
239	0x79	-0.085111976
240	0x82	0.10638997
241	0x62	-0.5745058
242	0x4a	-1.0851777
243	0x6c	-0.3617259
244	0x95	0.51067185
245	0x72	-0.23405793
246	0x77	-0.12766796
247	0xb4	1.1702896
248	0xa7	0.89367574
249	0x67	-0.46811587
250	0x99	0.5957838
251	0x83	0.12766796
252	0xb2	1.1277337
253	0xb3	1.1490116
254	0x83	0.12766796
255	0x79	-0.085111976

Model/Mobilenet/Mobilenet/MobilenetV1/Conv2d_11_pointwise/weights_quant/FakeQuantWithMinMaxVars u1 [128, 1, 1, 128] scale=0.0046372097 zero_point=150
0	0xb2	0.12984186
1	0x6f	-0.18085118
2	0xa4	0.06492093
3	0x8b	-0.051009305
4	0x80	-0.10201861
5	0x9b	0.023186048
6	0xb4	0.13911629
7	0xaa	0.092744194
8	0x9e	0.037097678
9	0xa3	0.060283728
10	0x90	-0.027823258
11	0xa8	0.08346978
12	0xc4	0.21331164
13	0xa3	0.060283728
14	0xb5	0.1437535
15	0x90	-0.027823258
16	0x77	-0.1437535
17	0xc9	0.2364977
18	0x80	-0.10201861
19	0x98	0.009274419
20	0x9b	0.023186048
21	0x98	0.009274419
22	0x7c	-0.120567456
23	0x63	-0.2364977
24	0x90	-0.027823258
25	0x62	-0.24113491
26	0x84	-0.08346978
27	0xa3	0.060283728
28	0x8a	-0.055646516
29	0xa8	0.08346978
30	0x9a	0.018548839
31	0x9d	0.032460466
32	0xa0	0.046372097
33	0x94	-0.009274419
34	0x57	-0.2921442
35	0x82	-0.092744194
36	0x98	0.009274419
37	0x92	-0.018548839
38	0x88	-0.06492093
39	0x98	0.009274419
40	0xb3	0.13447908
41	0x9a	0.018548839
42	0x88	-0.06492093
43	0xa8	0.08346978
44	0x99	0.013911629
45	0x88	-0.06492093
46	0xb4	0.13911629
47	0x8d	-0.04173489
48	0x95	-0.0046372097
49	0x6c	-0.19476281
50	0x92	-0.018548839
51	0x8a	-0.055646516
52	0x9e	0.037097678
53	0xbb	0.17157675
54	0x74	-0.15766513
55	0x92	-0.018548839
56	0xa5	0.06955814
57	0x8c	-0.046372097
58	0x86	-0.074195355
59	0xb6	0.14839071
60	0x9f	0.04173489
61	0x71	-0.17157675
62	0x95	-0.0046372097
63	0xb9	0.16230235
64	0x9f	0.04173489
65	0x99	0.013911629
66	0x89	-0.060283728
67	0xc1	0.19940002
68	0xa1	0.051009305
69	0x92	-0.018548839
70	0x9f	0.04173489
71	0x99	0.013911629
72	0x85	-0.07883257
73	0xa1	0.051009305
74	0xb2	0.12984186
75	0x9a	0.018548839
76	0x9f	0.04173489
77	0xa3	0.060283728
78	0x97	0.0046372097
79	0x92	-0.018548839
80	0xa1	0.051009305
81	0x82	-0.092744194
82	0x7e	-0.11129303
83	0x89	-0.060283728
84	0x7d	-0.115930244
85	0x91	-0.023186048
86	0xaa	0.092744194
87	0x99	0.013911629
88	0x6d	-0.1901256
89	0xa5	0.06955814
90	0x8e	-0.037097678
91	0x91	-0.023186048
92	0xaf	0.115930244
93	0xc0	0.19476281
94	0xc0	0.19476281
95	0x96	0.0
96	0x90	-0.027823258
97	0x77	-0.1437535
98	0x76	-0.14839071
99	0x76	-0.14839071
100	0x98	0.009274419
101	0x8e	-0.037097678
102	0x83	-0.08810698
103	0x8d	-0.04173489
104	0x7b	-0.12520467
105	0xa4	0.06492093
106	0x8a	-0.055646516
107	0xa7	0.07883257
108	0x9e	0.037097678
109	0x9a	0.018548839
110	0xd0	0.26895815
111	0x92	-0.018548839
112	0x95	-0.0046372097
113	0x9d	0.032460466
114	0xa2	0.055646516
115	0xca	0.24113491
116	0x75	-0.15302792
117	0xaf	0.115930244
118	0x9e	0.037097678
119	0x9f	0.04173489
120	0x9b	0.023186048
121	0xad	0.10665582
122	0xab	0.097381406
123	0x89	-0.060283728
124	0x85	-0.07883257
125	0xa4	0.06492093
126	0x74	-0.15766513
127	0xa6	0.074195355
128	0x81	-0.097381406
129	0x99	0.013911629
130	0x9d	0.032460466
131	0xb0	0.120567456
132	0x5d	-0.26432094
133	0x94	-0.009274419
134	0x84	-0.08346978
135	0x8a	-0.055646516
136	0xb5	0.1437535
137	0xa2	0.055646516
138	0xb2	0.12984186
139	0x8f	-0.032460466
140	0x88	-0.06492093
141	0x8e	-0.037097678
142	0x93	-0.013911629
143	0x63	-0.2364977
144	0x9d	0.032460466
145	0x8f	-0.032460466
146	0xba	0.16693956
147	0x9a	0.018548839
148	0x7f	-0.10665582
149	0xbd	0.18085118
150	0x82	-0.092744194
151	0xa9	0.08810698
152	0xa4	0.06492093
153	0xa7	0.07883257
154	0xa3	0.060283728
155	0x93	-0.013911629
156	0x9f	0.04173489
157	0x8e	-0.037097678
158	0x9f	0.04173489
159	0xa5	0.06955814
160	0xa0	0.046372097
161	0x98	0.009274419
162	0x9a	0.018548839
163	0x93	-0.013911629
164	0x84	-0.08346978
165	0x7e	-0.11129303
166	0x96	0.0
167	0x73	-0.16230235
168	0x98	0.009274419
169	0x9e	0.037097678
170	0x7f	-0.10665582
171	0x72	-0.16693956
172	0x82	-0.092744194
173	0x9b	0.023186048
174	0xa5	0.06955814
175	0x7d	-0.115930244
176	0x83	-0.08810698
177	0x9c	0.027823258
178	0x96	0.0
179	0x87	-0.06955814
180	0x9c	0.027823258
181	0xa0	0.046372097
182	0x7f	-0.10665582
183	0xac	0.10201861
184	0x97	0.0046372097
185	0x85	-0.07883257
186	0x82	-0.092744194
187	0x8d	-0.04173489
188	0x80	-0.10201861
189	0x8f	-0.032460466
190	0x85	-0.07883257
191	0x80	-0.10201861
192	0x8c	-0.046372097
193	0x90	-0.027823258
194	0x7b	-0.12520467
195	0x96	0.0
196	0xa6	0.074195355
197	0x8e	-0.037097678
198	0xb4	0.13911629
199	0xc3	0.20867443
200	0x87	-0.06955814
201	0xa3	0.060283728
202	0x8b	-0.051009305
203	0x86	-0.074195355
204	0xa4	0.06492093
205	0x9a	0.018548839
206	0xa2	0.055646516
207	0x9b	0.023186048
208	0xae	0.11129303
209	0x8d	-0.04173489
210	0xa0	0.046372097
211	0xa5	0.06955814
212	0xa0	0.046372097
213	0x99	0.013911629
214	0x8e	-0.037097678
215	0x8e	-0.037097678
216	0xaf	0.115930244
217	0x98	0.009274419
218	0x97	0.0046372097
219	0x82	-0.092744194
220	0x8e	-0.037097678
221	0x8d	-0.04173489
222	0x9b	0.023186048
223	0x7f	-0.10665582
224	0x90	-0.027823258
225	0xaa	0.092744194
226	0x9e	0.037097678
227	0x80	-0.10201861
228	0xa6	0.074195355
229	0xbe	0.18548839
230	0x6a	-0.20403722
231	0x97	0.0046372097
232	0x9c	0.027823258
233	0x97	0.0046372097
234	0x9b	0.023186048
235	0x98	0.009274419
236	0xaa	0.092744194
237	0xa5	0.06955814
238	0x9d	0.032460466
239	0x85	-0.07883257
240	0xab	0.097381406
241	0x83	-0.08810698
242	0x8d	-0.04173489
243	0x8d	-0.04173489
244	0xa3	0.060283728
245	0x8c	-0.046372097
246	0x9f	0.04173489
247	0xb2	0.12984186
248	0x7e	-0.11129303
249	0xa0	0.046372097
250	0xa2	0.055646516
251	0x91	-0.023186048
252	0xa8	0.08346978
253	0x99	0.013911629
254	0xa6	0.074195355
255	0x96	0.0

Model/Mobilenet/Mobilenet/MobilenetV1/Conv2d_12_depthwise/weights_quant/FakeQuantWithMinMaxVars u1 [1, 3, 3, 128] scale=0.02705837 zero_point=107
0	0x6a	-0.02705837
1	0x69	-0.05411674
2	0x6a	-0.02705837
3	0x6a	-0.02705837
4	0x71	0.16235022
5	0x6e	0.08117511
6	0x6b	0.0
7	0x6b	0.0
8	0x70	0.13529184
9	0x6c	0.02705837
10	0x69	-0.05411674
11	0x6a	-0.02705837
12	0x6d	0.05411674
13	0x6a	-0.02705837
14	0x68	-0.08117511
15	0x69	-0.05411674
16	0x69	-0.05411674
17	0x6b	0.0
18	0x6b	0.0
19	0x6b	0.0
20	0x67	-0.10823348
21	0x6e	0.08117511
22	0x6b	0.0
23	0x67	-0.10823348
24	0x69	-0.05411674
25	0x6e	0.08117511
26	0x6d	0.05411674
27	0x6c	0.02705837
28	0x6d	0.05411674
29	0x67	-0.10823348
30	0x69	-0.05411674
31	0x6a	-0.02705837
32	0x60	-0.29764208
33	0x6a	-0.02705837
34	0x6a	-0.02705837
35	0x67	-0.10823348
36	0x66	-0.13529184
37	0x6a	-0.02705837
38	0x6e	0.08117511
39	0x6c	0.02705837
40	0x6b	0.0
41	0x6b	0.0
42	0x6f	0.10823348
43	0x6f	0.10823348
44	0x65	-0.16235022
45	0x6a	-0.02705837
46	0x60	-0.29764208
47	0x6a	-0.02705837
48	0x6a	-0.02705837
49	0x6e	0.08117511
50	0x6a	-0.02705837
51	0x6d	0.05411674
52	0x6a	-0.02705837
53	0x6c	0.02705837
54	0x6c	0.02705837
55	0x6f	0.10823348
56	0x6a	-0.02705837
57	0x6a	-0.02705837
58	0x6d	0.05411674
59	0x6b	0.0
60	0x6c	0.02705837
61	0x68	-0.08117511
62	0x70	0.13529184
63	0x71	0.16235022
64	0x6c	0.02705837
65	0x6a	-0.02705837
66	0x69	-0.05411674
67	0x6e	0.08117511
68	0x6b	0.0
69	0x6d	0.05411674
70	0x6b	0.0
71	0x6c	0.02705837
72	0x6b	0.0
73	0x6a	-0.02705837
74	0x6b	0.0
75	0x67	-0.10823348
76	0x68	-0.08117511
77	0x6e	0.08117511
78	0x6e	0.08117511
79	0x6f	0.10823348
80	0x6b	0.0
81	0x68	-0.08117511
82	0x6d	0.05411674
83	0x6b	0.0
84	0x6f	0.10823348
85	0x6c	0.02705837
86	0x6d	0.05411674
87	0x70	0.13529184
88	0x6c	0.02705837
89	0x6b	0.0
90	0x72	0.1894086
91	0x69	-0.05411674
92	0x6f	0.10823348
93	0x6a	-0.02705837
94	0x66	-0.13529184
95	0x63	-0.21646696
96	0x6a	-0.02705837
97	0x78	0.3517588
98	0x6c	0.02705837
99	0x6e	0.08117511
100	0x73	0.21646696
101	0x6b	0.0
102	0x66	-0.13529184
103	0x66	-0.13529184
104	0x69	-0.05411674
105	0x70	0.13529184
106	0x69	-0.05411674
107	0x6e	0.08117511
108	0x6e	0.08117511
109	0x6b	0.0
110	0x6b	0.0
111	0x6a	-0.02705837
112	0x6b	0.0
113	0x6c	0.02705837
114	0x6c	0.02705837
115	0x6c	0.02705837
116	0x69	-0.05411674
117	0x6b	0.0
118	0x6c	0.02705837
119	0x6f	0.10823348
120	0x6c	0.02705837
121	0x68	-0.08117511
122	0x6e	0.08117511
123	0x6e	0.08117511
124	0x6b	0.0
125	0x6b	0.0
126	0x66	-0.13529184
127	0x69	-0.05411674
128	0x6a	-0.02705837
129	0x64	-0.1894086
130	0x6e	0.08117511
131	0x6b	0.0
132	0x68	-0.08117511
133	0x69	-0.05411674
134	0x6c	0.02705837
135	0x6c	0.02705837
136	0x6f	0.10823348
137	0x69	-0.05411674
138	0x6c	0.02705837
139	0x6b	0.0
140	0x6b	0.0
141	0x6d	0.05411674
142	0x67	-0.10823348
143	0x67	-0.10823348
144	0x6b	0.0
145	0x6a	-0.02705837
146	0x6a	-0.02705837
147	0x69	-0.05411674
148	0x6d	0.05411674
149	0x6f	0.10823348
150	0x6d	0.05411674
151	0x6e	0.08117511
152	0x6a	-0.02705837
153	0x6a	-0.02705837
154	0x6a	-0.02705837
155	0x6a	-0.02705837
156	0x72	0.1894086
157	0x67	-0.10823348
158	0x6b	0.0
159	0x6c	0.02705837
160	0x6d	0.05411674
161	0x6b	0.0
162	0x6a	-0.02705837
163	0x69	-0.05411674
164	0x6a	-0.02705837
165	0x6d	0.05411674
166	0x67	-0.10823348
167	0x72	0.1894086
168	0x6e	0.08117511
169	0x65	-0.16235022
170	0x6a	-0.02705837
171	0x71	0.16235022
172	0x6e	0.08117511
173	0x6b	0.0
174	0x6a	-0.02705837
175	0x6e	0.08117511
176	0x6d	0.05411674
177	0x70	0.13529184
178	0x6a	-0.02705837
179	0x6d	0.05411674
180	0x6c	0.02705837
181	0x6a	-0.02705837
182	0x6a	-0.02705837
183	0x6a	-0.02705837
184	0x6b	0.0
185	0x6b	0.0
186	0x69	-0.05411674
187	0x6a	-0.02705837
188	0x6b	0.0
189	0x67	-0.10823348
190	0x6b	0.0
191	0x62	-0.24352533
192	0x6c	0.02705837
193	0x68	-0.08117511
194	0x6d	0.05411674
195	0x69	-0.05411674
196	0x6f	0.10823348
197	0x68	-0.08117511
198	0x6c	0.02705837
199	0x6a	-0.02705837
200	0x6c	0.02705837
201	0x6d	0.05411674
202	0x6a	-0.02705837
203	0x69	-0.05411674
204	0x68	-0.08117511
205	0x6b	0.0
206	0x6e	0.08117511
207	0x70	0.13529184
208	0x6a	-0.02705837
209	0x6c	0.02705837
210	0x6c	0.02705837
211	0x6c	0.02705837
212	0x69	-0.05411674
213	0x75	0.2705837
214	0x6f	0.10823348
215	0x66	-0.13529184
216	0x6c	0.02705837
217	0x69	-0.05411674
218	0x70	0.13529184
219	0x6c	0.02705837
220	0x6d	0.05411674
221	0x6b	0.0
222	0x6f	0.10823348
223	0x6e	0.08117511
224	0x69	-0.05411674
225	0x69	-0.05411674
226	0x6b	0.0
227	0x6e	0.08117511
228	0x6f	0.10823348
229	0x6a	-0.02705837
230	0x66	-0.13529184
231	0x6d	0.05411674
232	0x67	-0.10823348
233	0x6d	0.05411674
234	0x6e	0.08117511
235	0x68	-0.08117511
236	0x69	-0.05411674
237	0x6d	0.05411674
238	0x6b	0.0
239	0x68	-0.08117511
240	0x6b	0.0
241	0x6b	0.0
242	0x69	-0.05411674
243	0x6a	-0.02705837
244	0x6c	0.02705837
245	0x6a	-0.02705837
246	0x6c	0.02705837
247	0x6a	-0.02705837
248	0x6b	0.0
249	0x6e	0.08117511
250	0x6b	0.0
251	0x6b	0.0
252	0x69	-0.05411674
253	0x69	-0.05411674
254	0x6c	0.02705837
255	0x6c	0.02705837

Model/Mobilenet/Mobilenet/MobilenetV1/Conv2d_12_pointwise/weights_quant/FakeQuantWithMinMaxVars u1 [256, 1, 1, 128] scale=0.006399117 zero_point=105
0	0x72	0.057592053
1	0x76	0.08318852
2	0x7c	0.12158322
3	0x6a	0.006399117
4	0x44	-0.23676732
5	0x43	-0.24316645
6	0x5d	-0.0767894
7	0x7b	0.115184106
8	0x64	-0.031995583
9	0x5d	-0.0767894
10	0x63	-0.0383947
11	0x86	0.1855744
12	0x66	-0.01919735
13	0x67	-0.012798234
14	0x78	0.09598675
15	0x5e	-0.070390284
16	0x61	-0.051192936
17	0x71	0.051192936
18	0x8d	0.23036821
19	0x53	-0.14078057
20	0x57	-0.115184106
21	0x77	0.08958764
22	0x66	-0.01919735
23	0x58	-0.10878499
24	0x81	0.1535788
25	0x50	-0.15997793
26	0x63	-0.0383947
27	0x8b	0.21756998
28	0x5f	-0.06399117
29	0x57	-0.115184106
30	0x77	0.08958764
31	0x53	-0.14078057
32	0x82	0.15997793
33	0x4f	-0.16637704
34	0x84	0.17277616
35	0x7d	0.12798233
36	0x5d	-0.0767894
37	0x77	0.08958764
38	0x67	-0.012798234
39	0x5e	-0.070390284
40	0x49	-0.20477174
41	0x65	-0.025596468
42	0x6f	0.0383947
43	0x78	0.09598675
44	0x66	-0.01919735
45	0x7d	0.12798233
46	0x82	0.15997793
47	0x5a	-0.09598675
48	0x59	-0.10238587
49	0x66	-0.01919735
50	0x6e	0.031995583
51	0x58	-0.10878499
52	0x6c	0.01919735
53	0x67	-0.012798234
54	0x80	0.1471797
55	0x5b	-0.08958764
56	0x63	-0.0383947
57	0x6b	0.012798234
58	0x72	0.057592053
59	0x6a	0.006399117
60	0x6f	0.0383947
61	0x5c	-0.08318852
62	0x76	0.08318852
63	0x70	0.04479382
64	0x53	-0.14078057
65	0x2f	-0.3711488
66	0x7a	0.10878499
67	0x5a	-0.09598675
68	0x68	-0.006399117
69	0x71	0.051192936
70	0x7e	0.13438146
71	0x74	0.070390284
72	0x81	0.1535788
73	0x46	-0.22396909
74	0x4d	-0.17917527
75	0x7a	0.10878499
76	0x7a	0.10878499
77	0x57	-0.115184106
78	0x23	-0.44793817
79	0x6f	0.0383947
80	0x67	-0.012798234
81	0x7d	0.12798233
82	0x76	0.08318852
83	0x69	0.0
84	0x76	0.08318852
85	0x6f	0.0383947
86	0x44	-0.23676732
87	0x6c	0.01919735
88	0x76	0.08318852
89	0x68	-0.006399117
90	0x71	0.051192936
91	0x6f	0.0383947
92	0x63	-0.0383947
93	0x54	-0.13438146
94	0x7c	0.12158322
95	0x72	0.057592053
96	0x41	-0.25596467
97	0x75	0.0767894
98	0x87	0.1919735
99	0x7a	0.10878499
100	0x38	-0.31355673
101	0x6d	0.025596468
102	0x84	0.17277616
103	0x62	-0.04479382
104	0x6a	0.006399117
105	0x7b	0.115184106
106	0x68	-0.006399117
107	0x76	0.08318852
108	0x75	0.0767894
109	0x4e	-0.17277616
110	0x61	-0.051192936
111	0x8d	0.23036821
112	0x6d	0.025596468
113	0x5f	-0.06399117
114	0x8e	0.23676732
115	0x77	0.08958764
116	0x5d	-0.0767894
117	0x58	-0.10878499
118	0x61	-0.051192936
119	0x86	0.1855744
120	0x5a	-0.09598675
121	0x8f	0.24316645
122	0x60	-0.057592053
123	0x5f	-0.06399117
124	0x69	0.0
125	0x7a	0.10878499
126	0x4e	-0.17277616
127	0x6f	0.0383947
128	0x64	-0.031995583
129	0x64	-0.031995583
130	0x64	-0.031995583
131	0x71	0.051192936
132	0x66	-0.01919735
133	0x76	0.08318852
134	0x7d	0.12798233
135	0x63	-0.0383947
136	0x6f	0.0383947
137	0x63	-0.0383947
138	0x6c	0.01919735
139	0x7e	0.13438146
140	0x6a	0.006399117
141	0x66	-0.01919735
142	0x83	0.16637704
143	0x65	-0.025596468
144	0x6c	0.01919735
145	0x64	-0.031995583
146	0x63	-0.0383947
147	0x5c	-0.08318852
148	0x69	0.0
149	0x69	0.0
150	0x69	0.0
151	0x69	0.0
152	0x69	0.0
153	0x68	-0.006399117
154	0x60	-0.057592053
155	0x6c	0.01919735
156	0x64	-0.031995583
157	0x6e	0.031995583
158	0x78	0.09598675
159	0x69	0.0
160	0x5c	-0.08318852
161	0x7d	0.12798233
162	0x6f	0.0383947
163	0x60	-0.057592053
164	0x63	-0.0383947
165	0x71	0.051192936
166	0x72	0.057592053
167	0x66	-0.01919735
168	0x7c	0.12158322
169	0x65	-0.025596468
170	0x6a	0.006399117
171	0x54	-0.13438146
172	0x6d	0.025596468
173	0x7a	0.10878499
174	0x68	-0.006399117
175	0x5d	-0.0767894
176	0x6d	0.025596468
177	0x67	-0.012798234
178	0x74	0.070390284
179	0x62	-0.04479382
180	0x55	-0.12798233
181	0x58	-0.10878499
182	0x73	0.06399117
183	0x69	0.0
184	0x6a	0.006399117
185	0x6d	0.025596468
186	0x65	-0.025596468
187	0x60	-0.057592053
188	0x5d	-0.0767894
189	0x65	-0.025596468
190	0x78	0.09598675
191	0x70	0.04479382
192	0x70	0.04479382
193	0x67	-0.012798234
194	0x6c	0.01919735
195	0x60	-0.057592053
196	0x6a	0.006399117
197	0x78	0.09598675
198	0x61	-0.051192936
199	0x65	-0.025596468
200	0x6f	0.0383947
201	0x77	0.08958764
202	0x66	-0.01919735
203	0x63	-0.0383947
204	0x6b	0.012798234
205	0x65	-0.025596468
206	0x6a	0.006399117
207	0x65	-0.025596468
208	0x7d	0.12798233
209	0x6e	0.031995583
210	0x25	-0.43513995
211	0x67	-0.012798234
212	0x61	-0.051192936
213	0x70	0.04479382
214	0x67	-0.012798234
215	0x55	-0.12798233
216	0x71	0.051192936
217	0x71	0.051192936
218	0x66	-0.01919735
219	0x68	-0.006399117
220	0x63	-0.0383947
221	0x6f	0.0383947
222	0x6d	0.025596468
223	0x64	-0.031995583
224	0x75	0.0767894
225	0x79	0.10238587
226	0x68	-0.006399117
227	0x6f	0.0383947
228	0x5f	-0.06399117
229	0x69	0.0
230	0x62	-0.04479382
231	0x66	-0.01919735
232	0x69	0.0
233	0x69	0.0
234	0x7a	0.10878499
235	0x6c	0.01919735
236	0x79	0.10238587
237	0x6f	0.0383947
238	0x6d	0.025596468
239	0x61	-0.051192936
240	0x6a	0.006399117
241	0x70	0.04479382
242	0x71	0.051192936
243	0x87	0.1919735
244	0x63	-0.0383947
245	0x66	-0.01919735
246	0x62	-0.04479382
247	0x69	0.0
248	0x5a	-0.09598675
249	0x5d	-0.0767894
250	0x68	-0.006399117
251	0x68	-0.006399117
252	0x6b	0.012798234
253	0x67	-0.012798234
254	0x6b	0.012798234
255	0x68	-0.006399117

Model/Mobilenet/Mobilenet/MobilenetV1/Conv2d_13_depthwise/weights_quant/FakeQuantWithMinMaxVars u1 [1, 3, 3, 256] scale=0.02779641 zero_point=111
0	0x6b	-0.11118564
1	0x71	0.05559282
2	0x6f	0.0
3	0x6e	-0.02779641
4	0x70	0.02779641
5	0x69	-0.16677846
6	0x70	0.02779641
7	0x6e	-0.02779641
8	0x70	0.02779641
9	0x70	0.02779641
10	0x71	0.05559282
11	0x70	0.02779641
12	0x6c	-0.08338923
13	0x74	0.13898206
14	0x73	0.11118564
15	0x6b	-0.11118564
16	0x73	0.11118564
17	0x72	0.08338923
18	0x6c	-0.08338923
19	0x71	0.05559282
20	0x6c	-0.08338923
21	0x73	0.11118564
22	0x6e	-0.02779641
23	0x72	0.08338923
24	0x6a	-0.13898206
25	0x7b	0.33355692
26	0x6f	0.0
27	0x6b	-0.11118564
28	0x6c	-0.08338923
29	0x71	0.05559282
30	0x6f	0.0
31	0x6d	-0.05559282
32	0x70	0.02779641
33	0x71	0.05559282
34	0x73	0.11118564
35	0x70	0.02779641
36	0x71	0.05559282
37	0x6d	-0.05559282
38	0x6c	-0.08338923
39	0x75	0.16677846
40	0x6e	-0.02779641
41	0x6e	-0.02779641
42	0x70	0.02779641
43	0x6c	-0.08338923
44	0x74	0.13898206
45	0x72	0.08338923
46	0x6f	0.0
47	0x6f	0.0
48	0x74	0.13898206
49	0x6e	-0.02779641
50	0x6b	-0.11118564
51	0x78	0.2501677
52	0x70	0.02779641
53	0x6f	0.0
54	0x6a	-0.13898206
55	0x70	0.02779641
56	0x71	0.05559282
57	0x6c	-0.08338923
58	0x6c	-0.08338923
59	0x6c	-0.08338923
60	0x6d	-0.05559282
61	0x72	0.08338923
62	0x6a	-0.13898206
63	0x6d	-0.05559282
64	0x77	0.22237128
65	0x73	0.11118564
66	0x78	0.2501677
67	0x6f	0.0
68	0x70	0.02779641
69	0x6a	-0.13898206
70	0x6c	-0.08338923
71	0x71	0.05559282
72	0x72	0.08338923
73	0x72	0.08338923
74	0x6d	-0.05559282
75	0x71	0.05559282
76	0x6e	-0.02779641
77	0x6f	0.0
78	0x75	0.16677846
79	0x68	-0.19457486
80	0x6b	-0.11118564
81	0x6c	-0.08338923
82	0x71	0.05559282
83	0x6e	-0.02779641
84	0x6f	0.0
85	0x71	0.05559282
86	0x70	0.02779641
87	0x6e	-0.02779641
88	0x74	0.13898206
89	0x6f	0.0
90	0x6d	-0.05559282
91	0x6c	-0.08338923
92	0x6c	-0.08338923
93	0x6c	-0.08338923
94	0x6b	-0.11118564
95	0x6a	-0.13898206
96	0x75	0.16677846
97	0x69	-0.16677846
98	0x70	0.02779641
99	0x70	0.02779641
100	0x69	-0.16677846
101	0x6d	-0.05559282
102	0x72	0.08338923
103	0x6e	-0.02779641
104	0x71	0.05559282
105	0x70	0.02779641
106	0x6f	0.0
107	0x71	0.05559282
108	0x6a	-0.13898206
109	0x6c	-0.08338923
110	0x6f	0.0
111	0x6c	-0.08338923
112	0x6f	0.0
113	0x70	0.02779641
114	0x6f	0.0
115	0x6b	-0.11118564
116	0x6c	-0.08338923
117	0x6a	-0.13898206
118	0x6c	-0.08338923
119	0x75	0.16677846
120	0x6e	-0.02779641
121	0x6d	-0.05559282
122	0x71	0.05559282
123	0x71	0.05559282
124	0x70	0.02779641
125	0x6e	-0.02779641
126	0x73	0.11118564
127	0x6e	-0.02779641
128	0x7d	0.38914973
129	0x6e	-0.02779641
130	0x6a	-0.13898206
131	0x68	-0.19457486
132	0x71	0.05559282
133	0x6c	-0.08338923
134	0x6f	0.0
135	0x74	0.13898206
136	0x6c	-0.08338923
137	0x71	0.05559282
138	0x72	0.08338923
139	0x71	0.05559282
140	0x74	0.13898206
141	0x68	-0.19457486
142	0x71	0.05559282
143	0x70	0.02779641
144	0x6e	-0.02779641
145	0x6f	0.0
146	0x70	0.02779641
147	0x6d	-0.05559282
148	0x6f	0.0
149	0x73	0.11118564
150	0x71	0.05559282
151	0x70	0.02779641
152	0x76	0.19457486
153	0x6c	-0.08338923
154	0x6b	-0.11118564
155	0x6b	-0.11118564
156	0x71	0.05559282
157	0x6b	-0.11118564
158	0x6b	-0.11118564
159	0x72	0.08338923
160	0x72	0.08338923
161	0x67	-0.22237128
162	0x70	0.02779641
163	0x6b	-0.11118564
164	0x6d	-0.05559282
165	0x72	0.08338923
166	0x71	0.05559282
167	0x70	0.02779641
168	0x6f	0.0
169	0x70	0.02779641
170	0x6c	-0.08338923
171	0x6f	0.0
172	0x6a	-0.13898206
173	0x6e	-0.02779641
174	0x6f	0.0
175	0x70	0.02779641
176	0x70	0.02779641
177	0x77	0.22237128
178	0x72	0.08338923
179	0x6c	-0.08338923
180	0x61	-0.38914973
181	0x71	0.05559282
182	0x6e	-0.02779641
183	0x70	0.02779641
184	0x6a	-0.13898206
185	0x71	0.05559282
186	0x72	0.08338923
187	0x6b	-0.11118564
188	0x6f	0.0
189	0x71	0.05559282
190	0x6d	-0.05559282
191	0x6d	-0.05559282
192	0x74	0.13898206
193	0x71	0.05559282
194	0x70	0.02779641
195	0x71	0.05559282
196	0x70	0.02779641
197	0x71	0.05559282
198	0x70	0.02779641
199	0x6d	-0.05559282
200	0x71	0.05559282
201	0x70	0.02779641
202	0x6a	-0.13898206
203	0x70	0.02779641
204	0x6b	-0.11118564
205	0x70	0.02779641
206	0x6f	0.0
207	0x70	0.02779641
208	0x6c	-0.08338923
209	0x6b	-0.11118564
210	0x70	0.02779641
211	0x71	0.05559282
212	0x6c	-0.08338923
213	0x71	0.05559282
214	0x6d	-0.05559282
215	0x6f	0.0
216	0x65	-0.27796412
217	0x6e	-0.02779641
218	0x6a	-0.13898206
219	0x73	0.11118564
220	0x6e	-0.02779641
221	0x7c	0.36135334
222	0x73	0.11118564
223	0x6f	0.0
224	0x71	0.05559282
225	0x6c	-0.08338923
226	0x6a	-0.13898206
227	0x6e	-0.02779641
228	0x6d	-0.05559282
229	0x6d	-0.05559282
230	0x74	0.13898206
231	0x73	0.11118564
232	0x70	0.02779641
233	0x73	0.11118564
234	0x74	0.13898206
235	0x78	0.2501677
236	0x73	0.11118564
237	0x71	0.05559282
238	0x6e	-0.02779641
239	0x6e	-0.02779641
240	0x74	0.13898206
241	0x6d	-0.05559282
242	0x6d	-0.05559282
243	0x74	0.13898206
244	0x6f	0.0
245	0x71	0.05559282
246	0x6e	-0.02779641
247	0x73	0.11118564
248	0x6e	-0.02779641
249	0x72	0.08338923
250	0x70	0.02779641
251	0x6d	-0.05559282
252	0x72	0.08338923
253	0x74	0.13898206
254	0x6d	-0.05559282
255	0x70	0.02779641

Model/Mobilenet/Mobilenet/MobilenetV1/Conv2d_13_pointwise/weights_quant/FakeQuantWithMinMaxVars u1 [256, 1, 1, 256] scale=0.0067689815 zero_point=96
0	0x55	-0.07445879
1	0x3e	-0.23014536
2	0x56	-0.06768981
3	0x70	0.1083037
4	0x5f	-0.0067689815
5	0x60	0.0
6	0x44	-0.18953148
7	0x56	-0.06768981
8	0x5d	-0.020306945
9	0x6b	0.07445879
10	0x62	0.013537963
11	0x69	0.060920835
12	0x50	-0.1083037
13	0x57	-0.060920835
14	0x4d	-0.12861064
15	0x6b	0.07445879
16	0x73	0.12861064
17	0x5d	-0.020306945
18	0x6a	0.06768981
19	0x52	-0.09476574
20	0x75	0.14214861
21	0x76	0.14891759
22	0x63	0.020306945
23	0x70	0.1083037
24	0x6d	0.08799676
25	0x5c	-0.027075926
26	0x84	0.24368334
27	0x63	0.020306945
28	0x5c	-0.027075926
29	0x63	0.020306945
30	0x4c	-0.13537963
31	0x6e	0.09476574
32	0x6f	0.101534724
33	0x65	0.033844907
34	0x5d	-0.020306945
35	0x65	0.033844907
36	0x5c	-0.027075926
37	0x4f	-0.11507268
38	0x63	0.020306945
39	0x63	0.020306945
40	0x65	0.033844907
41	0x55	-0.07445879
42	0x69	0.060920835
43	0x68	0.05415185
44	0x4b	-0.14214861
45	0x6d	0.08799676
46	0x5f	-0.0067689815
47	0x5e	-0.013537963
48	0x5f	-0.0067689815
49	0x65	0.033844907
50	0x65	0.033844907
51	0x6a	0.06768981
52	0x56	-0.06768981
53	0x56	-0.06768981
54	0x5f	-0.0067689815
55	0x66	0.04061389
56	0x60	0.0
57	0x63	0.020306945
58	0x6c	0.08122778
59	0x57	-0.060920835
60	0x52	-0.09476574
61	0x60	0.0
62	0x5d	-0.020306945
63	0x6e	0.09476574
64	0x7e	0.20306945
65	0x5a	-0.04061389
66	0x58	-0.05415185
67	0x62	0.013537963
68	0x61	0.0067689815
69	0x69	0.060920835
70	0x4d	-0.12861064
71	0x74	0.13537963
72	0x64	0.027075926
73	0x59	-0.04738287
74	0x55	-0.07445879
75	0x50	-0.1083037
76	0x75	0.14214861
77	0x62	0.013537963
78	0x58	-0.05415185
79	0x75	0.14214861
80	0x5f	-0.0067689815
81	0x6e	0.09476574
82	0x6f	0.101534724
83	0x68	0.05415185
84	0x66	0.04061389
85	0x4f	-0.11507268
86	0x55	-0.07445879
87	0x69	0.060920835
88	0x60	0.0
89	0x6e	0.09476574
90	0x61	0.0067689815
91	0x53	-0.08799676
92	0x68	0.05415185
93	0x43	-0.19630046
94	0x69	0.060920835
95	0x54	-0.08122778
96	0x60	0.0
97	0x5f	-0.0067689815
98	0x62	0.013537963
99	0x8b	0.2910662
100	0x33	-0.30460417
101	0x72	0.12184167
102	0x5b	-0.033844907
103	0x6a	0.06768981
104	0x62	0.013537963
105	0x67	0.04738287
106	0x5a	-0.04061389
107	0x56	-0.06768981
108	0x63	0.020306945
109	0x53	-0.08799676
110	0x63	0.020306945
111	0x57	-0.060920835
112	0x55	-0.07445879
113	0x52	-0.09476574
114	0x4e	-0.12184167
115	0x5d	-0.020306945
116	0x69	0.060920835
117	0x4d	-0.12861064
118	0x61	0.0067689815
119	0x5a	-0.04061389
120	0x58	-0.05415185
121	0x61	0.0067689815
122	0x6c	0.08122778
123	0x5d	-0.020306945
124	0x73	0.12861064
125	0x63	0.020306945
126	0x5c	-0.027075926
127	0x67	0.04738287
128	0x60	0.0
129	0x5b	-0.033844907
130	0x63	0.020306945
131	0x59	-0.04738287
132	0x73	0.12861064
133	0x62	0.013537963
134	0x50	-0.1083037
135	0x65	0.033844907
136	0x6c	0.08122778
137	0x6c	0.08122778
138	0x62	0.013537963
139	0x5b	-0.033844907
140	0x62	0.013537963
141	0x71	0.11507268
142	0x54	-0.08122778
143	0x75	0.14214861
144	0x7a	0.17599352
145	0x5b	-0.033844907
146	0x69	0.060920835
147	0x5c	-0.027075926
148	0x62	0.013537963
149	0x63	0.020306945
150	0x7d	0.19630046
151	0x59	-0.04738287
152	0x60	0.0
153	0x61	0.0067689815
154	0x58	-0.05415185
155	0x71	0.11507268
156	0x61	0.0067689815
157	0x62	0.013537963
158	0x72	0.12184167
159	0x63	0.020306945
160	0x6b	0.07445879
161	0x5d	-0.020306945
162	0x5c	-0.027075926
163	0x4f	-0.11507268
164	0x64	0.027075926
165	0x68	0.05415185
166	0x61	0.0067689815
167	0x5a	-0.04061389
168	0x62	0.013537963
169	0x66	0.04061389
170	0x58	-0.05415185
171	0x67	0.04738287
172	0x5a	-0.04061389
173	0x72	0.12184167
174	0x6f	0.101534724
175	0x4f	-0.11507268
176	0x47	-0.16922453
177	0x7b	0.1827625
178	0x5c	-0.027075926
179	0x5d	-0.020306945
180	0x5f	-0.0067689815
181	0x6c	0.08122778
182	0x6e	0.09476574
183	0x70	0.1083037
184	0x50	-0.1083037
185	0x4c	-0.13537963
186	0x65	0.033844907
187	0x5f	-0.0067689815
188	0x59	-0.04738287
189	0x5f	-0.0067689815
190	0x42	-0.20306945
191	0x59	-0.04738287
192	0x6b	0.07445879
193	0x6e	0.09476574
194	0x65	0.033844907
195	0x6d	0.08799676
196	0x65	0.033844907
197	0x54	-0.08122778
198	0x69	0.060920835
199	0x73	0.12861064
200	0x4e	-0.12184167
201	0x5f	-0.0067689815
202	0x8c	0.29783517
203	0x5e	-0.013537963
204	0x6a	0.06768981
205	0x65	0.033844907
206	0x57	-0.060920835
207	0x4a	-0.14891759
208	0x55	-0.07445879
209	0x5f	-0.0067689815
210	0x74	0.13537963
211	0x61	0.0067689815
212	0x6b	0.07445879
213	0x65	0.033844907
214	0x65	0.033844907
215	0x5e	-0.013537963
216	0x60	0.0
217	0x69	0.060920835
218	0x75	0.14214861
219	0x62	0.013537963
220	0x60	0.0
221	0x5c	-0.027075926
222	0x75	0.14214861
223	0x4e	-0.12184167
224	0x75	0.14214861
225	0x64	0.027075926
226	0x6e	0.09476574
227	0x5e	-0.013537963
228	0x70	0.1083037
229	0x62	0.013537963
230	0x5c	-0.027075926
231	0x61	0.0067689815
232	0x5b	-0.033844907
233	0x5e	-0.013537963
234	0x6e	0.09476574
235	0x60	0.0
236	0x76	0.14891759
237	0x4e	-0.12184167
238	0x4f	-0.11507268
239	0x5d	-0.020306945
240	0x63	0.020306945
241	0x63	0.020306945
242	0x64	0.027075926
243	0x6c	0.08122778
244	0x69	0.060920835
245	0x54	-0.08122778
246	0x56	-0.06768981
247	0x5b	-0.033844907
248	0x65	0.033844907
249	0x62	0.013537963
250	0x64	0.027075926
251	0x5c	-0.027075926
252	0x53	-0.08799676
253	0x69	0.060920835
254	0x58	-0.05415185
255	0x64	0.027075926

Model/Mobilenet/Mobilenet/MobilenetV1/Conv2d_1_depthwise/weights_quant/FakeQuantWithMinMaxVars u1 [1, 3, 3, 16] scale=0.042192068 zero_point=143
0	0x97	0.33753654
1	0x92	0.1265762
2	0x8f	0.0
3	0x8e	-0.042192068
4	0x8d	-0.084384136
5	0xa2	0.8016493
6	0xb4	1.5611066
7	0x8d	-0.084384136
8	0x8f	0.0
9	0x89	-0.2531524
10	0x49	-2.9534447
11	0x88	-0.29534447
12	0x7e	-0.7172651
13	0x7f	-0.6750731
14	0x9b	0.5063048
15	0x95	0.2531524
16	0xa9	1.0969938
17	0x9e	0.63288105
18	0x8e	-0.042192068
19	0x84	-0.46411276
20	0xe4	3.586326
21	0x8d	-0.084384136
22	0x01	-5.991274
23	0x8e	-0.042192068
24	0x8d	-0.084384136
25	0x88	-0.29534447
26	0xaf	1.3501462
27	0x7f	-0.6750731
28	0x8b	-0.16876827
29	0x8b	-0.16876827
30	0x92	0.1265762
31	0xa6	0.97041756
32	0xad	1.2657621
33	0x96	0.29534447
34	0x8e	-0.042192068
35	0x94	0.21096034
36	0x8f	0.0
37	0x91	0.084384136
38	0x8c	-0.1265762
39	0x90	0.042192068
40	0x90	0.042192068
41	0xa2	0.8016493
42	0x86	-0.37972862
43	0x9b	0.5063048
44	0x7e	-0.7172651
45	0x8c	-0.1265762
46	0x8b	-0.16876827
47	0x9a	0.46411276
48	0x8a	-0.21096034
49	0x57	-2.3627558
50	0x95	0.2531524
51	0x91	0.084384136
52	0x7a	-0.8860334
53	0xa1	0.75945723
54	0x7b	-0.8438414
55	0x9a	0.46411276
56	0x89	-0.2531524
57	0x69	-1.6032985
58	0x1d	-4.8098955
59	0x8b	-0.16876827
60	0x81	-0.59068894
61	0x8d	-0.084384136
62	0x92	0.1265762
63	0x9a	0.46411276
64	0x8e	-0.042192068
65	0x92	0.1265762
66	0x8f	0.0
67	0x91	0.084384136
68	0x7b	-0.8438414
69	0x82	-0.5484969
70	0xff	4.7255116
71	0x8e	-0.042192068
72	0x81	-0.59068894
73	0x8f	0.0
74	0xdc	3.2487893
75	0x89	-0.2531524
76	0x9c	0.5484969
77	0x95	0.2531524
78	0x80	-0.63288105
79	0x80	-0.63288105
80	0x81	-0.59068894
81	0xb1	1.4345303
82	0x8a	-0.21096034
83	0x98	0.37972862
84	0x78	-0.97041756
85	0x76	-1.0548017
86	0x79	-0.9282255
87	0x8c	-0.1265762
88	0x8a	-0.21096034
89	0xbc	1.898643
90	0xdf	3.3753655
91	0xa1	0.75945723
92	0x97	0.33753654
93	0x95	0.2531524
94	0x8f	0.0
95	0x83	-0.5063048
96	0x8f	0.0
97	0x7d	-0.75945723
98	0x91	0.084384136
99	0x8b	-0.16876827
100	0x96	0.29534447
101	0x9e	0.63288105
102	0x85	-0.4219207
103	0x86	-0.37972862
104	0x93	0.16876827
105	0x86	-0.37972862
106	0x58	-2.3205638
107	0x94	0.21096034
108	0x7f	-0.6750731
109	0x93	0.16876827
110	0x9c	0.5484969
111	0x97	0.33753654
112	0x76	-1.0548017
113	0x8f	0.0
114	0x8f	0.0
115	0x8d	-0.084384136
116	0x7b	-0.8438414
117	0x88	-0.29534447
118	0xd6	2.995637
119	0x8c	-0.1265762
120	0x89	-0.2531524
121	0x80	-0.63288105
122	0xba	1.8142589
123	0x8d	-0.084384136
124	0xbb	1.856451
125	0x9b	0.5063048
126	0x7d	-0.75945723
127	0x81	-0.59068894
128	0x83	-0.5063048
129	0x9b	0.5063048
130	0x8d	-0.084384136
131	0x91	0.084384136
132	0x96	0.29534447
133	0x8a	-0.21096034
134	0x7c	-0.8016493
135	0xb3	1.5189145
136	0x93	0.16876827
137	0x9a	0.46411276
138	0xa2	0.8016493
139	0x94	0.21096034
140	0x92	0.1265762
141	0x94	0.21096034
142	0x8a	-0.21096034
143	0x90	0.042192068
