.docu/my-koda-8-8-0.xapk.out/unknown/cz.skodaauto.myskoda/assets/mlkit_barcode_models/oned_auto_regressor_mobile.tflite (tflite, 213880 bytes, 14 tensors)

Model/Embedding/tgt_1d_convs/embedding_1dconv_0/weights_quant/FakeQuantWithMinMaxVars u1 [32, 3, 3, 32] scale=0.014284343 zero_point=143
0.028568687 0.028568687 -0.014284343 -0.014284343 0.0 -0.028568687 -0.014284343 0.014284343
0.014284343 0.014284343 -0.014284343 -0.014284343 -0.028568687 -0.014284343 0.014284343 0.0
0.0 -0.014284343 -0.014284343 -0.014284343 0.028568687 0.014284343 0.014284343 0.014284343
-0.014284343 -0.014284343 0.014284343 0.0 0.028568687 0.0 0.028568687 0.014284343
0.07142172 0.07142172 -0.08570606 -0.14284344 -0.099990405 -0.07142172 0.11427475 -0.04285303
-0.18569647 0.04285303 -0.028568687 0.07142172 -0.17141213 0.028568687 0.057137374 -0.028568687
-0.028568687 -0.15712778 0.18569647 0.057137374 -0.21426515 0.099990405 -0.18569647 -0.057137374
0.11427475 0.028568687 0.17141213 0.21426515 0.07142172 0.18569647 0.11427475 0.2571182
0.014284343 0.014284343 -0.028568687 0.014284343 0.028568687 0.014284343 -0.014284343 0.014284343
-0.014284343 -0.014284343 -0.028568687 0.0 0.0 0.014284343 -0.014284343 0.0
0.014284343 -0.014284343 -0.014284343 -0.014284343 0.0 0.014284343 0.014284343 -0.014284343
-0.014284343 0.0 0.014284343 -0.028568687 -0.028568687 0.0 0.028568687 -0.028568687
0.028568687 0.014284343 -0.014284343 0.014284343 0.014284343 0.014284343 -0.028568687 0.0
-0.028568687 -0.028568687 0.014284343 0.0 0.014284343 -0.014284343 -0.028568687 0.014284343
-0.014284343 0.014284343 0.014284343 -0.014284343 -0.028568687 0.014284343 0.028568687 0.0
0.0 0.014284343 0.028568687 0.0 -0.028568687 0.014284343 0.014284343 0.0
-0.41424596 -0.44281465 -0.5285207 0.15712778 0.5570894 -0.17141213 0.18569647 -0.15712778
0.07142172 -0.07142172 0.07142172 -0.2285495 -0.19998081 0.04285303 0.11427475 -0.07142172
0.17141213 -0.099990405 0.099990405 0.7427859 0.39996162 -0.48566768 -0.49995202 0.4285303
0.07142172 -0.07142172 0.47138333 0.29997122 0.04285303 -0.17141213 -0.11427475 0.17141213
0.0 0.0 0.014284343 0.014284343 0.028568687 -0.028568687 0.0 0.028568687
-0.028568687 0.0 0.0 0.0 0.028568687 0.0 0.028568687 0.028568687
0.014284343 0.0 -0.014284343 0.028568687 0.0 0.014284343 -0.014284343 -0.028568687
0.0 -0.014284343 0.028568687 -0.014284343 0.0 0.028568687 0.028568687 -0.014284343
0.0 0.0 0.0 0.0 0.0 0.0 0.0 0.0
0.0 0.0 0.0 0.0 0.0 0.0 0.0 0.0
0.0 0.0 0.0 0.0 0.0 0.0 0.0 0.0
0.0 0.0 0.0 0.0 0.0 0.0 0.0 0.0
0.0 0.0 0.0 0.0 0.0 0.0 0.0 0.0
0.0 0.0 0.0 0.0 0.0 0.0 0.0 0.0
0.0 0.0 0.0 0.0 0.0 0.0 0.0 0.0
0.0 0.0 0.0 0.0 0.0 0.0 0.0 0.0
00000000: 9191 8e8e 8f8d 8e90 9090 8e8e 8d8e 908f
00000010: 8f8e 8e8e 9190 9090 8e8e 908f 918f 9190
00000020: 9494 8985 888a 978c 8292 8d94 8391 938d
00000030: 8d84 9c93 8096 828b 9791 9b9e 949c 97a1
00000040: 9090 8d90 9190 8e90 8e8e 8d8f 8f90 8e8f
00000050: 908e 8e8e 8f90 908e 8e8f 908d 8d8f 918d
00000060: 9190 8e90 9090 8d8f 8d8d 908f 908e 8d90
00000070: 8e90 908e 8d90 918f 8f90 918f 8d90 908f
00000080: 7270 6a9a b683 9c84 948a 947f 8192 978a
00000090: 9b88 96c3 ab6d 6cad 948a b0a4 9283 879b
000000a0: 8f8f 9090 918d 8f91 8d8f 8f8f 918f 9191
000000b0: 908f 8e91 8f90 8e8d 8f8e 918e 8f91 918e
000000c0: 8f8f 8f8f 8f8f 8f8f 8f8f 8f8f 8f8f 8f8f
000000d0: 8f8f 8f8f 8f8f 8f8f 8f8f 8f8f 8f8f 8f8f
000000e0: 8f8f 8f8f 8f8f 8f8f 8f8f 8f8f 8f8f 8f8f
000000f0: 8f8f 8f8f 8f8f 8f8f 8f8f 8f8f 8f8f 8f8f

Model/Embedding/tgt_1d_convs/embedding_1dconv_1/weights_quant/FakeQuantWithMinMaxVars u1 [32, 3, 3, 32] scale=0.0073177167 zero_point=117
0.0 0.0 0.0073177167 0.0073177167 0.0073177167 0.0073177167 0.0 0.0073177167
0.014635433 0.0073177167 0.0 0.0073177167 0.0073177167 0.014635433 0.0073177167 -0.02195315
-0.014635433 0.0 0.014635433 0.02195315 0.0 -0.014635433 -0.0073177167 0.014635433
0.014635433 0.02195315 0.0 0.0073177167 0.014635433 -0.02195315 0.02195315 -0.0073177167
-0.014635433 -0.029270867 -0.07317717 -0.02195315 0.029270867 -0.07317717 0.058541734 -0.0439063
-0.0073177167 0.10976575 0.06585945 -0.10244803 0.051224016 0.0 0.051224016 0.1317189
-0.058541734 0.08049488 -0.0878126 0.014635433 -0.02195315 -0.036588583 0.07317717 -0.02195315
0.051224016 -0.051224016 -0.10976575 0.0073177167 0.0439063 -0.08049488 -0.08049488 0.0
0.0 -0.014635433 -0.02195315 -0.014635433 -0.0073177167 0.0 -0.02195315 0.014635433
0.0073177167 0.0073177167 -0.014635433 0.0 0.014635433 -0.014635433 -0.014635433 0.02195315
-0.014635433 -0.014635433 0.0 0.0073177167 0.0 -0.0073177167 0.0073177167 -0.014635433
0.0 0.014635433 -0.0073177167 -0.0073177167 -0.014635433 0.014635433 0.0 0.014635433
0.0 -0.0073177167 0.0 0.014635433 0.014635433 -0.02195315 0.0073177167 0.0073177167
-0.0073177167 0.0073177167 0.02195315 0.0 -0.0073177167 0.0073177167 0.0073177167 0.014635433
0.0073177167 0.014635433 0.014635433 0.014635433 -0.0073177167 0.014635433 -0.0073177167 0.0073177167
-0.014635433 0.014635433 -0.0073177167 0.0 0.0 -0.014635433 -0.02195315 0.0
-0.09513032 -0.21221378 -0.20489606 -0.036588583 -0.058541734 -0.18294291 -0.19757836 -0.0439063
-0.036588583 0.0073177167 -0.02195315 0.09513032 0.10976575 -0.014635433 0.12440118 -0.10976575
0.41710985 -0.10976575 -0.09513032 0.19757836 0.42442757 -0.0439063 -0.2634378 -0.10244803
0.02195315 0.07317717 -0.051224016 -0.09513032 -0.014635433 0.0 -0.07317717 -0.09513032
-0.014635433 0.014635433 0.0 -0.0073177167 0.0073177167 -0.0073177167 0.0 -0.0073177167
-0.0073177167 -0.0073177167 0.02195315 0.0 -0.02195315 -0.014635433 0.014635433 0.0
0.0073177167 0.0073177167 -0.0073177167 0.014635433 -0.014635433 -0.0073177167 0.0073177167 0.0073177167
-0.0073177167 0.02195315 0.0073177167 0.0073177167 -0.0073177167 0.014635433 0.014635433 -0.014635433
0.0 0.0 0.0 0.0 0.0 0.0 0.0 0.0
0.0 0.0 0.0 0.0 0.0 0.0 0.0 0.0
0.0 0.0 0.0 0.0 0.0 0.0 0.0 0.0
0.0 0.0 0.0 0.0 0.0 0.0 0.0 0.0
0.0 0.0 0.0 0.0 0.0 0.0 0.0 0.0
0.0 0.0 0.0 0.0 0.0 0.0 0.0 0.0
0.0 0.0 0.0 0.0 0.0 0.0 0.0 0.0
0.0 0.0 0.0 0.0 0.0 0.0 0.0 0.0
00000000: 7575 7676 7676 7576 7776 7576 7677 7672
00000010: 7375 7778 7573 7477 7778 7576 7772 7874
00000020: 7371 6b72 796b 7d6f 7484 7e67 7c75 7c87
00000030: 6d80 6977 7270 7f72 7c6e 6676 7b6a 6a75
00000040: 7573 7273 7475 7277 7676 7375 7773 7378
00000050: 7373 7576 7574 7673 7577 7474 7377 7577
00000060: 7574 7577 7772 7676 7476 7875 7476 7677
00000070: 7677 7777 7477 7476 7377 7475 7573 7275
00000080: 6858 5970 6d5c 5a6f 7076 7282 8473 8666
00000090: ae66 6890 af6f 5167 787f 6e68 7375 6b68
000000a0: 7377 7574 7674 7574 7474 7875 7273 7775
000000b0: 7676 7477 7374 7676 7478 7676 7477 7773
000000c0: 7575 7575 7575 7575 7575 7575 7575 7575
000000d0: 7575 7575 7575 7575 7575 7575 7575 7575
000000e0: 7575 7575 7575 7575 7575 7575 7575 7575
000000f0: 7575 7575 7575 7575 7575 7575 7575 7575

Model/Embedding/tgt_1d_convs/embedding_1dconv_2/weights_quant/FakeQuantWithMinMaxVars u1 [32, 3, 3, 32] scale=0.008979359 zero_point=124
-0.017958717 -0.008979359 -0.017958717 0.0 0.008979359 -0.008979359 0.017958717 0.008979359
-0.008979359 0.008979359 0.0 -0.017958717 0.008979359 0.008979359 0.017958717 -0.008979359
-0.008979359 -0.008979359 0.017958717 0.0 0.0 0.008979359 0.008979359 -0.008979359
-0.017958717 -0.008979359 -0.017958717 -0.008979359 0.008979359 -0.008979359 -0.008979359 0.0
-0.008979359 -0.044896793 0.07183487 0.053876154 0.053876154 -0.053876154 0.08081423 -0.06285551
0.07183487 0.09877294 -0.026938077 -0.053876154 0.044896793 0.07183487 -0.044896793 -0.035917435
-0.008979359 0.008979359 -0.053876154 0.026938077 -0.044896793 -0.008979359 0.0 0.035917435
0.0 -0.09877294 0.017958717 -0.12571102 -0.16162845 0.035917435 0.053876154 -0.044896793
-0.017958717 -0.017958717 0.0 -0.017958717 0.0 0.008979359 0.017958717 0.008979359
0.008979359 0.017958717 0.017958717 -0.017958717 -0.008979359 -0.008979359 0.017958717 0.0
0.008979359 0.0 -0.008979359 0.0 0.0 -0.008979359 -0.017958717 -0.017958717
-0.017958717 0.0 0.0 -0.008979359 0.008979359 -0.008979359 -0.008979359 0.0
0.017958717 0.008979359 -0.017958717 -0.017958717 0.008979359 -0.008979359 -0.017958717 -0.017958717
-0.017958717 0.017958717 0.0 -0.017958717 0.008979359 -0.008979359 0.008979359 0.008979359
0.0 -0.008979359 0.017958717 0.0 -0.017958717 0.008979359 -0.017958717 0.008979359
0.008979359 0.0 -0.017958717 -0.008979359 0.008979359 -0.017958717 0.0 0.0
0.07183487 -0.21550462 0.0 0.044896793 0.008979359 -0.07183487 -0.035917435 -0.053876154
0.035917435 -0.06285551 0.0 0.026938077 0.0 0.008979359 -0.07183487 -0.008979359
-0.08081423 -0.026938077 -0.017958717 -0.08081423 -0.24244268 0.08081423 -0.06285551 0.053876154
0.21550462 -0.12571102 0.12571102 -0.08081423 -0.21550462 0.008979359 0.053876154 0.008979359
-0.008979359 0.0 -0.017958717 0.017958717 -0.017958717 0.008979359 0.008979359 -0.017958717
-0.008979359 0.008979359 0.0 0.017958717 -0.008979359 0.008979359 0.017958717 -0.008979359
-0.008979359 0.0 -0.008979359 0.017958717 -0.017958717 0.008979359 0.0 -0.017958717
0.008979359 0.008979359 -0.008979359 -0.008979359 -0.008979359 0.008979359 0.008979359 0.008979359
0.0 0.0 0.0 0.0 0.0 0.0 0.0 0.0
0.0 0.0 0.0 0.0 0.0 0.0 0.0 0.0
0.0 0.0 0.0 0.0 0.0 0.0 0.0 0.0
0.0 0.0 0.0 0.0 0.0 0.0 0.0 0.0
0.0 0.0 0.0 0.0 0.0 0.0 0.0 0.0
0.0 0.0 0.0 0.0 0.0 0.0 0.0 0.0
0.0 0.0 0.0 0.0 0.0 0.0 0.0 0.0
0.0 0.0 0.0 0.0 0.0 0.0 0.0 0.0
00000000: 7a7b 7a7c 7d7b 7e7d 7b7d 7c7a 7d7d 7e7b
00000010: 7b7b 7e7c 7c7d 7d7b 7a7b 7a7b 7d7b 7b7c
00000020: 7b77 8482 8276 8575 8487 7976 8184 7778
00000030: 7b7d 767f 777b 7c80 7c71 7e6e 6a80 8277
00000040: 7a7a 7c7a 7c7d 7e7d 7d7e 7e7a 7b7b 7e7c
00000050: 7d7c 7b7c 7c7b 7a7a 7a7c 7c7b 7d7b 7b7c
00000060: 7e7d 7a7a 7d7b 7a7a 7a7e 7c7a 7d7b 7d7d
00000070: 7c7b 7e7c 7a7d 7a7d 7d7c 7a7b 7d7a 7c7c
00000080: 8464 7c81 7d74 7876 8075 7c7f 7c7d 747b
00000090: 7379 7a73 6185 7582 946e 8a73 647d 827d
000000a0: 7b7c 7a7e 7a7d 7d7a 7b7d 7c7e 7b7d 7e7b
000000b0: 7b7c 7b7e 7a7d 7c7a 7d7d 7b7b 7b7d 7d7d
000000c0: 7c7c 7c7c 7c7c 7c7c 7c7c 7c7c 7c7c 7c7c
000000d0: 7c7c 7c7c 7c7c 7c7c 7c7c 7c7c 7c7c 7c7c
000000e0: 7c7c 7c7c 7c7c 7c7c 7c7c 7c7c 7c7c 7c7c
000000f0: 7c7c 7c7c 7c7c 7c7c 7c7c 7c7c 7c7c 7c7c

Model/Embedding/tgt_1d_convs/embedding_1dconv_3/weights_quant/FakeQuantWithMinMaxVars u1 [32, 3, 3, 32] scale=0.004664647 zero_point=115
-0.004664647 0.0 0.0 0.009329294 0.009329294 0.009329294 -0.004664647 -0.009329294
-0.004664647 -0.009329294 -0.004664647 -0.004664647 0.009329294 0.0 0.0 0.009329294
0.009329294 0.0 -0.009329294 -0.004664647 0.0 -0.004664647 -0.004664647 -0.009329294
-0.009329294 -0.004664647 -0.004664647 0.0 0.0 -0.004664647 -0.009329294 0.0
0.055975765 0.009329294 0.07463435 0.041981824 -0.07463435 0.041981824 0.07463435 -0.041981824
-0.009329294 0.013993941 0.055975765 0.06064041 0.018658588 -0.004664647 -0.051311117 -0.032652527
-0.032652527 0.032652527 -0.023323234 -0.004664647 0.027987882 -0.037317175 0.018658588 -0.04664647
-0.055975765 -0.09795759 -0.013993941 0.032652527 0.037317175 0.04664647 0.09795759 0.032652527
0.009329294 -0.004664647 0.009329294 0.004664647 0.0 0.009329294 0.009329294 0.009329294
0.004664647 0.009329294 0.0 -0.009329294 -0.009329294 0.0 0.004664647 0.0
-0.004664647 0.004664647 0.0 -0.009329294 0.004664647 0.009329294 -0.004664647 -0.004664647
0.004664647 0.0 0.004664647 -0.004664647 0.009329294 -0.009329294 0.004664647 0.009329294
-0.009329294 -0.009329294 0.004664647 -0.004664647 -0.009329294 -0.009329294 0.009329294 -0.009329294
-0.009329294 0.0 0.004664647 0.0 0.009329294 -0.009329294 0.004664647 -0.004664647
0.0 0.004664647 0.009329294 0.009329294 0.0 0.0 0.0 -0.004664647
-0.009329294 0.009329294 0.009329294 0.0 0.009329294 0.009329294 0.009329294 0.009329294
0.06064041 -0.009329294 0.08862829 0.004664647 0.1679273 0.041981824 0.06064041 -0.004664647
-0.032652527 -0.04664647 0.08862829 -0.027987882 -0.15859799 -0.023323234 -0.04664647 0.14460406
-0.009329294 0.0 0.013993941 0.13527477 0.09329294 -0.1679273 0.09795759 -0.079298995
-0.06064041 -0.10262223 0.004664647 0.17259194 0.023323234 0.009329294 0.0 0.013993941
-0.009329294 0.009329294 0.004664647 0.004664647 0.009329294 0.0 0.009329294 0.004664647
0.009329294 0.009329294 -0.004664647 0.0 0.0 0.009329294 0.004664647 -0.004664647
0.0 0.0 0.004664647 -0.009329294 0.009329294 -0.004664647 -0.004664647 -0.009329294
0.004664647 0.009329294 -0.009329294 0.004664647 0.009329294 -0.004664647 0.009329294 0.009329294
0.0 0.0 0.0 0.0 0.0 0.0 0.0 0.0
0.0 0.0 0.0 0.0 0.0 0.0 0.0 0.0
0.0 0.0 0.0 0.0 0.0 0.0 0.0 0.0
0.0 0.0 0.0 0.0 0.0 0.0 0.0 0.0
0.0 0.0 0.0 0.0 0.0 0.0 0.0 0.0
0.0 0.0 0.0 0.0 0.0 0.0 0.0 0.0
0.0 0.0 0.0 0.0 0.0 0.0 0.0 0.0
0.0 0.0 0.0 0.0 0.0 0.0 0.0 0.0
00000000: 7273 7375 7575 7271 7271 7272 7573 7375
00000010: 7573 7172 7372 7271 7172 7273 7372 7173
00000020: 7f75 837c 637c 836a 7176 7f80 7772 686c
00000030: 6c7a 6e72 796b 7769 675e 707a 7b7d 887a
00000040: 7572 7574 7375 7575 7475 7371 7173 7473
00000050: 7274 7371 7475 7272 7473 7472 7571 7475
00000060: 7171 7472 7171 7571 7173 7473 7571 7472
00000070: 7374 7575 7373 7372 7175 7573 7575 7575
00000080: 8071 8674 977c 8072 6c69 866d 516e 6992
00000090: 7173 7690 874f 8862 665d 7498 7875 7376
000000a0: 7175 7474 7573 7574 7575 7273 7375 7472
000000b0: 7373 7471 7572 7271 7475 7174 7572 7575
000000c0: 7373 7373 7373 7373 7373 7373 7373 7373
000000d0: 7373 7373 7373 7373 7373 7373 7373 7373
000000e0: 7373 7373 7373 7373 7373 7373 7373 7373
000000f0: 7373 7373 7373 7373 7373 7373 7373 7373

Model/Embedding/tgt_1d_convs/embedding_1dconv_4/weights_quant/FakeQuantWithMinMaxVars u1 [32, 3, 3, 32] scale=0.006677482 zero_point=100
0.0 0.006677482 0.013354964 0.006677482 -0.006677482 0.006677482 -0.006677482 0.0
0.006677482 0.0 -0.013354964 -0.013354964 -0.006677482 -0.006677482 0.0 -0.006677482
-0.006677482 0.0 -0.006677482 0.013354964 0.006677482 0.006677482 0.0 -0.013354964
0.006677482 0.006677482 0.0 -0.006677482 0.006677482 -0.006677482 0.006677482 -0.006677482
-0.006677482 0.006677482 -0.026709927 -0.060097337 -0.033387408 0.0734523 -0.013354964 -0.046742372
-0.026709927 0.013354964 -0.060097337 -0.0734523 -0.093484744 -0.04006489 -0.013354964 0.006677482
0.020032445 -0.10016223 -0.020032445 0.020032445 -0.08012978 -0.046742372 -0.013354964 -0.020032445
-0.086807266 -0.026709927 -0.053419854 0.033387408 -0.0734523 -0.08012978 -0.060097337 0.020032445
-0.006677482 -0.006677482 0.0 0.0 0.006677482 0.006677482 -0.006677482 -0.006677482
0.006677482 0.0 0.0 0.006677482 0.006677482 -0.006677482 -0.006677482 -0.006677482
0.0 0.0 0.0 -0.006677482 -0.013354964 0.006677482 0.006677482 0.0
0.006677482 -0.006677482 0.006677482 0.0 -0.006677482 0.006677482 -0.006677482 0.0
0.0 -0.006677482 -0.006677482 0.006677482 0.006677482 -0.013354964 -0.006677482 0.0
-0.006677482 -0.006677482 0.006677482 0.006677482 0.006677482 -0.006677482 0.0 -0.006677482
0.006677482 0.006677482 -0.006677482 0.0 0.006677482 -0.006677482 0.006677482 0.0
0.006677482 0.006677482 -0.006677482 0.0 0.0 -0.006677482 -0.006677482 0.006677482
-0.033387408 -0.006677482 0.046742372 -0.0734523 0.13354963 -0.10683971 0.046742372 -0.04006489
0.04006489 0.053419854 0.013354964 0.033387408 0.12019467 0.046742372 0.066774815 0.0
-0.033387408 0.053419854 0.0 0.11351719 0.10016223 0.033387408 -0.013354964 -0.026709927
0.053419854 0.086807266 0.026709927 -0.026709927 -0.026709927 0.093484744 -0.086807266 0.046742372
0.006677482 0.006677482 -0.006677482 -0.006677482 0.0 0.0 -0.006677482 0.0
0.0 -0.006677482 -0.006677482 0.006677482 0.013354964 0.006677482 0.0 -0.006677482
0.006677482 0.013354964 0.0 0.0 0.0 0.0 0.0 -0.006677482
0.0 0.006677482 0.0 0.013354964 0.013354964 0.006677482 0.0 -0.013354964
0.0 0.0 0.0 0.0 0.0 0.0 0.0 0.0
0.0 0.0 0.0 0.0 0.0 0.0 0.0 0.0
0.0 0.0 0.0 0.0 0.0 0.0 0.0 0.0
0.0 0.0 0.0 0.0 0.0 0.0 0.0 0.0
0.0 0.0 0.0 0.0 0.0 0.0 0.0 0.0
0.0 0.0 0.0 0.0 0.0 0.0 0.0 0.0
0.0 0.0 0.0 0.0 0.0 0.0 0.0 0.0
0.0 0.0 0.0 0.0 0.0 0.0 0.0 0.0
00000000: 6465 6665 6365 6364 6564 6262 6363 6463
00000010: 6364 6366 6565 6462 6565 6463 6563 6563
00000020: 6365 605b 5f6f 625d 6066 5b59 565e 6265
00000030: 6755 6167 585d 6261 5760 5c69 5958 5b67
00000040: 6363 6464 6565 6363 6564 6465 6563 6363
00000050: 6464 6463 6265 6564 6563 6564 6365 6364
00000060: 6463 6365 6562 6364 6363 6565 6563 6463
00000070: 6565 6364 6563 6564 6565 6364 6463 6365
00000080: 5f63 6b59 7854 6b5e 6a6c 6669 766b 6e64
00000090: 5f6c 6475 7369 6260 6c71 6860 6072 576b
000000a0: 6565 6363 6464 6364 6463 6365 6665 6463
000000b0: 6566 6464 6464 6463 6465 6466 6665 6462
000000c0: 6464 6464 6464 6464 6464 6464 6464 6464
000000d0: 6464 6464 6464 6464 6464 6464 6464 6464
000000e0: 6464 6464 6464 6464 6464 6464 6464 6464
000000f0: 6464 6464 6464 6464 6464 6464 6464 6464

Model/Embedding/tgt_1d_convs/embedding_1dconv_5/weights_quant/FakeQuantWithMinMaxVars u1 [32, 3, 3, 32] scale=0.0054073413 zero_point=147
0.0 0.0 0.0054073413 0.0054073413 0.010814683 -0.0054073413 0.0054073413 0.0
0.0054073413 0.0054073413 -0.0054073413 0.0054073413 -0.0054073413 0.0054073413 0.0 -0.0054073413
0.0 0.0054073413 -0.0054073413 0.0 -0.0054073413 0.0054073413 0.0054073413 0.0054073413
-0.0054073413 -0.0054073413 -0.010814683 0.0 0.0 0.0 -0.0054073413 0.0054073413
0.010814683 -0.0054073413 -0.03785139 0.1297762 0.0 -0.03244405 0.09733214 0.03785139
0.03785139 0.054073412 -0.021629365 -0.021629365 0.010814683 0.027036706 -0.03785139 0.03244405
-0.04866607 0.0 -0.0648881 -0.03244405 0.0 -0.027036706 -0.03785139 0.010814683
-0.021629365 0.0054073413 -0.010814683 -0.021629365 -0.027036706 0.0054073413 0.016222024 0.016222024
-0.0054073413 -0.0054073413 0.0 0.0 0.010814683 -0.0054073413 -0.0054073413 0.0
0.0054073413 0.010814683 -0.0054073413 -0.010814683 0.010814683 0.0 0.0 0.0
0.0 0.0 0.0054073413 0.010814683 0.0 -0.010814683 -0.0054073413 0.0
0.0 -0.0054073413 0.0 0.010814683 -0.0054073413 0.0 0.010814683 -0.010814683
-0.0054073413 0.010814683 -0.0054073413 0.0054073413 -0.010814683 0.0054073413 0.0054073413 0.0
-0.010814683 0.010814683 -0.0054073413 0.0 -0.0054073413 -0.0054073413 -0.0054073413 0.0
0.0054073413 0.0 -0.010814683 0.0054073413 -0.0054073413 0.0054073413 0.0054073413 0.0
0.0 0.0 -0.0054073413 0.0 0.0 -0.0054073413 -0.0054073413 0.0054073413
0.010814683 -0.059480753 -0.027036706 -0.054073412 0.016222024 -0.016222024 -0.010814683 0.03785139
-0.010814683 0.027036706 0.04325873 0.03244405 -0.07570278 -0.07570278 -0.04866607 0.054073412
0.03785139 -0.0648881 -0.0648881 0.021629365 0.016222024 -0.03244405 0.027036706 -0.059480753
0.0054073413 0.016222024 0.027036706 -0.021629365 0.0054073413 -0.0648881 0.010814683 -0.027036706
0.010814683 -0.0054073413 0.0054073413 0.0 0.0 -0.010814683 0.0 0.0
0.0 0.0054073413 -0.0054073413 0.0 0.010814683 0.0054073413 0.0 0.0
-0.0054073413 -0.0054073413 0.0054073413 -0.0054073413 0.010814683 0.0054073413 0.0 -0.0054073413
0.0054073413 0.0 -0.010814683 0.0054073413 0.0 -0.0054073413 0.010814683 0.0
0.0 0.0 0.0 0.0 0.0 0.0 0.0 0.0
0.0 0.0 0.0 0.0 0.0 0.0 0.0 0.0
0.0 0.0 0.0 0.0 0.0 0.0 0.0 0.0
0.0 0.0 0.0 0.0 0.0 0.0 0.0 0.0
0.0 0.0 0.0 0.0 0.0 0.0 0.0 0.0
0.0 0.0 0.0 0.0 0.0 0.0 0.0 0.0
0.0 0.0 0.0 0.0 0.0 0.0 0.0 0.0
0.0 0.0 0.0 0.0 0.0 0.0 0.0 0.0
00000000: 9393 9494 9592 9493 9494 9294 9294 9392
00000010: 9394 9293 9294 9494 9292 9193 9393 9294
00000020: 9592 8cab 938d a59a 9a9d 8f8f 9598 8c99
00000030: 8a93 878d 938e 8c95 8f94 918f 8e94 9696
00000040: 9292 9393 9592 9293 9495 9291 9593 9393
00000050: 9393 9495 9391 9293 9392 9395 9293 9591
00000060: 9295 9294 9194 9493 9195 9293 9292 9293
00000070: 9493 9194 9294 9493 9393 9293 9392 9294
00000080: 9588 8e89 9690 919a 9198 9b99 8585 8a9d
00000090: 9a87 8797 968d 9888 9496 988f 9487 958e
000000a0: 9592 9493 9391 9393 9394 9293 9594 9393
000000b0: 9292 9492 9594 9392 9493 9194 9392 9593
000000c0: 9393 9393 9393 9393 9393 9393 9393 9393
000000d0: 9393 9393 9393 9393 9393 9393 9393 9393
000000e0: 9393 9393 9393 9393 9393 9393 9393 9393
000000f0: 9393 9393 9393 9393 9393 9393 9393 9393

Model/Embedding/weights_quant/FakeQuantWithMinMaxVars u1 [242, 32] scale=0.021553062 zero_point=118
0.8621225 -0.47416735 0.043106124 0.19397756 -0.064659186 0.2801898 0.0 0.30174285
0.10776531 -0.40950817 0.043106124 0.2801898 -0.064659186 0.4526143 -0.49572042 -0.30174285
-0.10776531 0.25863674 -0.1724245 -0.08621225 -0.43106124 0.043106124 -0.6250388 -0.021553062
-0.25863674 0.36640206 -0.49572042 -0.30174285 -0.043106124 -0.19397756 0.58193266 -0.64659184
-0.1724245 -0.36640206 -0.08621225 0.38795513 1.0129939 -1.077653 -0.043106124 0.1724245
0.12931837 -0.2801898 -1.2931837 -0.21553062 -0.12931837 0.15087143 0.689698 -0.84056944
-0.15087143 -0.84056944 0.21553062 0.25863674 0.1724245 0.4526143 -0.6034857 0.15087143
-0.10776531 0.40950817 -0.043106124 -0.1724245 0.23708367 -0.84056944 0.64659184 0.23708367
0.043106124 -0.38795513 0.49572042 -0.064659186 0.5172735 -0.99144083 -0.36640206 0.2801898
-0.23708367 -0.25863674 -0.92678165 0.25863674 0.10776531 -0.1724245 0.2801898 -0.64659184
-0.77591026 -0.8621225 -0.30174285 0.064659186 -0.12931837 0.12931837 -0.10776531 0.711251
-0.1724245 0.2801898 -0.25863674 -0.08621225 0.38795513 -0.08621225 0.36640206 -0.1724245
0.32329592 -0.043106124 0.75435716 0.23708367 0.36640206 -0.40950817 -0.5603796 0.12931837
-0.021553062 0.0 -0.689698 0.23708367 0.40950817 -0.58193266 0.064659186 0.12931837
-0.66814494 -0.7974633 -0.25863674 0.30174285 0.19397756 -0.23708367 -0.6034857 0.30174285
-0.47416735 0.08621225 0.19397756 -0.064659186 0.40950817 0.25863674 0.47416735 0.1724245
0.32329592 -0.711251 0.43106124 0.10776531 0.5388265 -0.75435716 0.6250388 0.36640206
0.0 -0.23708367 -0.25863674 -0.064659186 -0.38795513 0.5172735 0.6250388 0.0
-0.8836755 -0.25863674 -0.47416735 0.23708367 0.23708367 -0.7328041 -0.4526143 0.32329592
0.2801898 0.19397756 0.7974633 -0.38795513 0.064659186 -0.77591026 -0.32329592 0.25863674
0.25863674 0.4526143 0.64659184 0.7328041 0.25863674 -0.32329592 -1.2716306 0.40950817
0.15087143 0.2801898 -0.12931837 -0.36640206 -0.32329592 0.021553062 0.58193266 -0.08621225
-0.7328041 -0.9052286 0.21553062 0.12931837 0.15087143 -0.15087143 -0.66814494 -0.23708367
-0.7328041 0.49572042 -0.38795513 -0.47416735 -0.08621225 -0.064659186 0.10776531 0.30174285
0.08621225 -0.12931837 0.5603796 0.6250388 0.21553062 -0.64659184 -1.0561 0.23708367
-0.2801898 0.08621225 -0.1724245 -0.43106124 -0.8621225 0.38795513 0.64659184 -0.47416735
-1.034547 -0.9483347 0.08621225 0.0 -0.021553062 -0.711251 -0.344849 0.043106124
-0.25863674 0.64659184 -0.47416735 -0.064659186 0.021553062 -0.36640206 0.21553062 -0.08621225
0.6034857 0.12931837 0.64659184 0.6250388 0.08621225 -0.23708367 -0.10776531 0.43106124
0.25863674 0.47416735 -0.30174285 -0.23708367 0.021553062 0.043106124 0.6034857 0.19397756
-0.99144083 -0.043106124 -0.344849 0.12931837 0.36640206 -0.5603796 -1.034547 -0.5172735
-0.021553062 0.043106124 0.64659184 -0.81901634 -0.25863674 -0.25863674 -0.77591026 0.77591026
00000000: 9e60 787f 7383 7684 7b63 7883 738b 5f68
00000010: 7182 6e72 6278 5975 6a87 5f68 746d 9158
00000020: 6e65 7288 a544 747e 7c69 3a6c 707d 964f
00000030: 6f4f 8082 7e8b 5a7d 7189 746e 814f 9481
00000040: 7864 8d73 8e48 6583 6b6a 4b82 7b6e 8358
00000050: 524e 6879 707c 7197 6e83 6a72 8872 876e
00000060: 8574 9981 8763 5c7c 7576 5681 895b 797c
00000070: 5751 6a84 7f6b 5a84 607a 7f73 8982 8c7e
00000080: 8555 8a7b 8f53 9387 766b 6a73 648e 9376
00000090: 4d6a 6081 8154 6185 837f 9b64 7952 6782
000000a0: 828b 9498 8267 3b89 7d83 7065 6777 9172
000000b0: 544c 807c 7d6f 576b 548d 6460 7273 7b84
000000c0: 7a70 9093 8058 4581 697a 6e62 4e88 9460
000000d0: 464a 7a76 7555 6678 6a94 6073 7765 8072
000000e0: 927c 9493 7a6b 718a 828c 686b 7778 927f
000000f0: 4874 667c 875c 465e 7578 9450 6a6a 529a

Model/Pervasive/pervasive/densenet/densenet_block_0/MaskedConv2d/weights_quant/FakeQuantWithMinMaxVars u1 [32, 3, 3, 128] scale=0.013988854 zero_point=165
-0.027977709 -0.013988854 -0.013988854 0.013988854 0.013988854 0.013988854 0.0 -0.111910835
0.0 0.0 -0.06994427 -0.013988854 0.027977709 -0.111910835 0.013988854 0.0
-0.09792198 -0.041966565 0.041966565 -0.055955417 -0.041966565 0.013988854 0.041966565 0.055955417
-0.041966565 -0.08393313 -0.013988854 -0.06994427 -0.013988854 -0.19584396 -0.041966565 0.041966565
-0.013988854 -0.013988854 -0.013988854 0.013988854 -0.06994427 -0.027977709 -0.08393313 -0.013988854
-0.041966565 0.027977709 -0.055955417 0.16786626 -0.041966565 0.013988854 0.34972137 -0.013988854
0.013988854 -0.08393313 0.0 0.12589969 0.013988854 -0.055955417 -0.013988854 -0.16786626
-0.06994427 0.027977709 -0.041966565 -0.041966565 0.0 -0.09792198 0.041966565 -0.027977709
0.027977709 -0.027977709 0.041966565 0.0 0.013988854 -0.013988854 -0.013988854 0.013988854
0.19584396 -0.013988854 0.013988854 0.041966565 -0.041966565 -0.013988854 -0.027977709 -0.027977709
-0.027977709 -0.027977709 -0.041966565 -0.111910835 -0.041966565 -0.041966565 -0.027977709 -0.06994427
-0.027977709 0.027977709 0.055955417 -0.111910835 0.0 -0.013988854 0.013988854 -0.041966565
0.0 0.013988854 0.041966565 -0.06994427 -0.027977709 0.013988854 0.0 -0.041966565
0.027977709 0.20983282 0.013988854 0.055955417 -0.013988854 0.013988854 -0.041966565 0.027977709
-0.111910835 -0.055955417 0.041966565 -0.027977709 -0.013988854 -0.027977709 0.027977709 -0.055955417
-0.027977709 0.09792198 0.013988854 -0.08393313 -0.055955417 -0.055955417 0.013988854 0.111910835
0.0 0.06994427 -0.013988854 -0.08393313 -0.027977709 -0.027977709 0.027977709 -0.15387739
0.0 -0.08393313 0.0 0.0 0.027977709 0.041966565 -0.027977709 0.013988854
0.09792198 0.013988854 -0.013988854 0.055955417 0.013988854 -0.055955417 -0.027977709 0.111910835
0.06994427 0.055955417 -0.027977709 0.0 0.0 0.041966565 -0.013988854 -0.027977709
0.0 -0.013988854 -0.013988854 0.027977709 -0.027977709 -0.013988854 -0.13988854 0.0
0.0 0.0 0.041966565 0.027977709 0.041966565 0.0 0.23781052 -0.027977709
-0.013988854 -0.027977709 -0.027977709 0.23781052 0.013988854 0.0 0.027977709 0.055955417
-0.013988854 0.0 -0.041966565 -0.013988854 0.027977709 0.055955417 -0.027977709 0.041966565
0.041966565 -0.013988854 -0.041966565 0.027977709 0.041966565 0.09792198 0.0 0.0
-0.041966565 0.041966565 0.08393313 0.0 0.027977709 0.027977709 0.013988854 -0.041966565
0.12589969 0.027977709 -0.19584396 -0.013988854 -0.013988854 -0.027977709 -0.06994427 0.055955417
0.027977709 -0.12589969 -0.041966565 0.027977709 -0.041966565 0.027977709 -0.027977709 0.027977709
0.027977709 0.0 -0.013988854 0.041966565 0.08393313 0.111910835 -0.027977709 0.0
0.041966565 0.041966565 0.027977709 0.09792198 0.0 0.027977709 0.06994427 -0.06994427
0.013988854 -0.041966565 0.013988854 0.0 0.041966565 0.013988854 -0.013988854 -0.013988854
0.0 0.13988854 0.0 0.041966565 -0.013988854 0.013988854 0.0 -0.19584396
00000000: a3a4 a4a6 a6a6 a59d a5a5 a0a4 a79d a6a5
00000010: 9ea2 a8a1 a2a6 a8a9 a29f a4a0 a497 a2a8
00000020: a4a4 a4a6 a0a3 9fa4 a2a7 a1b1 a2a6 bea4
00000030: a69f a5ae a6a1 a499 a0a7 a2a2 a59e a8a3
00000040: a7a3 a8a5 a6a4 a4a6 b3a4 a6a8 a2a4 a3a3
00000050: a3a3 a29d a2a2 a3a0 a3a7 a99d a5a4 a6a2
00000060: a5a6 a8a0 a3a6 a5a2 a7b4 a6a9 a4a6 a2a7
00000070: 9da1 a8a3 a4a3 a7a1 a3ac a69f a1a1 a6ad
00000080: a5aa a49f a3a3 a79a a59f a5a5 a7a8 a3a6
00000090: aca6 a4a9 a6a1 a3ad aaa9 a3a5 a5a8 a4a3
000000a0: a5a4 a4a7 a3a4 9ba5 a5a5 a8a7 a8a5 b6a3
000000b0: a4a3 a3b6 a6a5 a7a9 a4a5 a2a4 a7a9 a3a8
000000c0: a8a4 a2a7 a8ac a5a5 a2a8 aba5 a7a7 a6a2
000000d0: aea7 97a4 a4a3 a0a9 a79c a2a7 a2a7 a3a7
000000e0: a7a5 a4a8 abad a3a5 a8a8 a7ac a5a7 aaa0
000000f0: a6a2 a6a5 a8a6 a4a4 a5af a5a8 a4a6 a597

Model/Pervasive/pervasive/densenet/densenet_block_0/densenet_block_0_conv1/weights_quant/FakeQuantWithMinMaxVars u1 [128, 1, 1, 160] scale=0.006025845 zero_point=132
-0.08436184 0.03615507 0.078335986 -0.09038768 -0.04218092 -0.09641352 0.030129226 -0.02410338
0.01205169 0.02410338 -0.054232605 -0.054232605 -0.04820676 -0.01205169 0.018077536 0.07231014
-0.07231014 -0.054232605 0.03615507 -0.1325686 0.14462028 0.03615507 -0.02410338 -0.04820676
-0.04218092 0.01205169 -0.09641352 0.03615507 0.02410338 -0.04218092 0.04218092 0.10243937
0.006025845 0.006025845 -0.06025845 0.03615507 -0.0662843 -0.006025845 -0.01205169 0.054232605
-0.006025845 0.0662843 -0.02410338 0.03615507 0.0 -0.018077536 0.07231014 0.006025845
0.0 -0.018077536 0.04218092 0.02410338 0.030129226 0.10243937 0.09038768 -0.054232605
-0.078335986 -0.04218092 0.10243937 -0.02410338 -0.04820676 0.03615507 -0.02410338 0.054232605
0.13859443 -0.1205169 0.018077536 -0.018077536 0.018077536 -0.030129226 0.07231014 -0.018077536
0.018077536 0.04820676 -0.03615507 -0.006025845 -0.07231014 0.030129226 0.078335986 -0.08436184
-0.054232605 0.09038768 -0.03615507 0.0 0.0 0.078335986 -0.006025845 0.07231014
0.054232605 0.0 -0.006025845 -0.006025845 0.04820676 0.02410338 -0.006025845 0.0
0.030129226 -0.04820676 0.0662843 -0.07231014 0.10243937 -0.10846521 -0.12654275 -0.03615507
0.078335986 0.06025845 -0.11449106 0.0662843 0.04218092 -0.018077536 -0.06025845 0.04218092
0.030129226 -0.078335986 -0.04820676 -0.018077536 0.01205169 -0.04820676 0.006025845 -0.054232605
0.09038768 0.09641352 0.030129226 -0.078335986 -0.14462028 -0.006025845 -0.006025845 0.09038768
-0.23500796 -0.054232605 0.030129226 0.09038768 0.01205169 0.09641352 -0.2651372 0.0
-0.08436184 0.06025845 0.33744735 -0.1205169 -0.03615507 -0.11449106 0.03615507 -0.10846521
0.06025845 0.03615507 -0.054232605 0.054232605 -0.06025845 -0.0662843 0.09038768 0.01205169
0.09641352 -0.030129226 -0.01205169 0.08436184 -0.20487873 0.2651372 -0.11449106 0.03615507
0.08436184 0.07231014 0.018077536 -0.1205169 0.0 -0.006025845 0.02410338 0.03615507
-0.03615507 0.02410338 -0.030129226 0.078335986 -0.030129226 0.11449106 -0.006025845 -0.018077536
0.01205169 -0.13859443 -0.030129226 0.006025845 -0.10846521 -0.018077536 0.0 0.09038768
0.02410338 -0.04218092 0.0662843 -0.018077536 -0.1205169 -0.08436184 -0.14462028 0.12654275
0.08436184 0.20487873 0.0 -0.09641352 0.09038768 0.03615507 -0.13859443 0.006025845
0.07231014 -0.01205169 -0.10846521 -0.15064614 -0.12654275 -0.06025845 -0.1205169 -0.01205169
0.09038768 0.02410338 0.11449106 -0.13859443 0.01205169 -0.02410338 0.03615507 -0.018077536
-0.078335986 0.006025845 0.04218092 0.04820676 0.006025845 0.054232605 0.030129226 -0.054232605
0.15064614 -0.09038768 0.078335986 -0.07231014 0.04820676 0.02410338 0.03615507 -0.030129226
0.030129226 -0.078335986 0.018077536 -0.030129226 -0.13859443 0.0 -0.1205169 0.018077536
0.01205169 0.018077536 0.0662843 -0.006025845 0.030129226 0.030129226 0.06025845 -0.09038768
-0.16269782 -0.078335986 0.13859443 0.10243937 0.054232605 0.030129226 -0.03615507 0.0
00000000: 768a 9175 7d74 8980 8688 7b7b 7c82 8790
00000010: 787b 8a6e 9c8a 807c 7d86 748a 887d 8b95
00000020: 8585 7a8a 7983 828d 838f 808a 8481 9085
00000030: 8481 8b88 8995 937b 777d 9580 7c8a 808d
00000040: 9b70 8781 877f 9081 878c 7e83 7889 9176
00000050: 7b93 7e84 8491 8390 8d84 8383 8c88 8384
00000060: 897c 8f78 9572 6f7e 918e 718f 8b81 7a8b
00000070: 8977 7c81 867c 857b 9394 8977 6c83 8393
00000080: 5d7b 8993 8694 5884 768e bc70 7e71 8a72
00000090: 8e8a 7b8d 7a79 9386 947f 8292 62b0 718a
000000a0: 9290 8770 8483 888a 7e88 7f91 7f97 8381
000000b0: 866d 7f85 7281 8493 887d 8f81 7076 6c99
000000c0: 92a6 8474 938a 6d85 9082 726b 6f7a 7082
000000d0: 9388 976d 8680 8a81 7785 8b8c 858d 897b
000000e0: 9d75 9178 8c88 8a7f 8977 877f 6d84 7087
000000f0: 8687 8f83 8989 8e75 6977 9b95 8d89 7e84

Model/Pervasive/pervasive/densenet/densenet_block_1/MaskedConv2d/weights_quant/FakeQuantWithMinMaxVars u1 [32, 3, 3, 128] scale=0.011457246 zero_point=130
-0.08020072 -0.034371737 -0.045828983 0.068743475 0.0 -0.022914492 0.011457246 0.045828983
0.068743475 0.045828983 0.011457246 -0.13748695 -0.068743475 -0.045828983 -0.034371737 0.09165797
-0.05728623 0.022914492 0.0 -0.068743475 0.19477318 0.11457246 -0.011457246 0.034371737
0.068743475 0.045828983 0.011457246 0.011457246 -0.05728623 0.022914492 -0.022914492 -0.045828983
-0.011457246 -0.11457246 0.022914492 -0.09165797 -0.2520594 0.011457246 0.011457246 0.034371737
0.045828983 -0.068743475 0.011457246 0.0 -0.011457246 0.034371737 0.09165797 0.0
0.022914492 0.011457246 0.05728623 0.0 -0.034371737 0.05728623 -0.034371737 -0.97386587
0.045828983 0.08020072 -0.011457246 0.022914492 -0.11457246 -0.08020072 0.05728623 0.05728623
-0.35517463 -0.05728623 -0.068743475 0.13748695 -0.045828983 -0.022914492 -0.045828983 0.011457246
-0.034371737 -0.045828983 0.022914492 0.05728623 -0.011457246 0.05728623 -0.034371737 -0.011457246
-0.034371737 -0.045828983 0.05728623 0.0 -0.011457246 -0.045828983 -0.034371737 0.4468326
-0.1260297 0.35517463 0.022914492 -0.011457246 0.0 -0.011457246 0.05728623 -0.011457246
-0.045828983 -0.022914492 0.068743475 0.0 -0.05728623 0.08020072 -0.05728623 -0.034371737
-0.36663187 0.011457246 -0.05728623 0.022914492 -0.045828983 -0.022914492 0.034371737 0.0
0.022914492 -0.034371737 0.045828983 -0.21768767 0.103115216 -0.045828983 0.011457246 0.011457246
0.022914492 0.1260297 0.0 0.045828983 0.05728623 0.045828983 0.0 0.022914492
-0.034371737 -0.022914492 0.068743475 -0.18331593 -0.022914492 0.05728623 -0.068743475 -0.011457246
0.068743475 -0.4010036 0.0 -0.068743475 0.0 -0.05728623 0.09165797 0.16040143
-0.022914492 -0.09165797 -0.068743475 -0.09165797 0.1489442 0.034371737 -0.045828983 0.05728623
0.13748695 -0.08020072 0.1260297 0.18331593 -0.08020072 0.0 -0.08020072 0.022914492
-0.045828983 -0.045828983 0.05728623 -0.103115216 0.30934563 -0.05728623 -0.05728623 0.0
0.19477318 -0.022914492 0.0 0.0 0.0 -0.022914492 0.08020072 0.011457246
-0.011457246 -0.045828983 0.0 0.05728623 -0.48120433 0.28643113 0.022914492 -0.19477318
0.034371737 0.068743475 0.2749739 0.08020072 -0.103115216 0.05728623 0.022914492 0.103115216
0.38954636 -0.11457246 0.30934563 0.045828983 -0.16040143 0.022914492 -0.05728623 0.011457246
-0.045828983 0.0 -0.034371737 0.011457246 -0.011457246 0.05728623 0.0 -0.022914492
0.034371737 0.045828983 0.05728623 0.011457246 0.022914492 0.034371737 0.045828983 0.0
-0.011457246 0.4010036 0.1489442 -0.16040143 0.034371737 0.045828983 0.0 0.0
-0.17185868 -0.17185868 -0.011457246 0.011457246 0.0 0.0 -0.045828983 -0.011457246
-0.045828983 -0.022914492 -0.11457246 0.068743475 -0.068743475 0.068743475 0.045828983 0.045828983
0.034371737 0.045828983 0.36663187 -0.33226013 0.034371737 -0.034371737 -0.24060217 -0.1260297
0.0 0.16040143 0.011457246 0.011457246 0.0 -0.034371737 -0.045828983 0.0
00000000: 7b7f 7e88 8280 8386 8886 8376 7c7e 7f8a
00000010: 7d84 827c 938c 8185 8886 8383 7d84 807e
00000020: 8178 847a 6c83 8385 867c 8382 8185 8a82
00000030: 8483 8782 7f87 7f2d 8689 8184 787b 8787
00000040: 637d 7c8e 7e80 7e83 7f7e 8487 8187 7f81
00000050: 7f7e 8782 817e 7fa9 77a1 8481 8281 8781
00000060: 7e80 8882 7d89 7d7f 6283 7d84 7e80 8582
00000070: 847f 866f 8b7e 8383 848d 8286 8786 8284
00000080: 7f80 8872 8087 7c81 885f 827c 827d 8a90
00000090: 807a 7c7a 8f85 7e87 8e7b 8d92 7b82 7b84
000000a0: 7e7e 8779 9d7d 7d82 9380 8282 8280 8983
000000b0: 817e 8287 589b 8471 8588 9a89 7987 848b
000000c0: a478 9d86 7484 7d83 7e82 7f83 8187 8280
000000d0: 8586 8783 8485 8682 81a5 8f74 8586 8282
000000e0: 7373 8183 8282 7e81 7e80 7888 7c88 8686
000000f0: 8586 a265 857f 6d77 8290 8383 827f 7e82

Model/Pervasive/pervasive/densenet/densenet_block_1/densenet_block_1_conv1/weights_quant/FakeQuantWithMinMaxVars u1 [128, 1, 1, 192] scale=0.00738046 zero_point=116
0.11808736 -0.02952184 -0.13284828 -0.05166322 -0.0738046 0.0369023 -0.01476092 0.10332644
0.0 0.110706896 -0.00738046 0.15498966 -0.110706896 -0.02952184 0.0369023 -0.05166322
-0.08118506 -0.08856552 0.02952184 0.05166322 0.110706896 -0.02214138 0.05904368 -0.01476092
-0.04428276 0.05166322 -0.0738046 0.08118506 0.09594598 0.12546782 -0.06642414 -0.01476092
-0.10332644 -0.02952184 -0.1476092 -0.02952184 0.06642414 -0.09594598 -0.05166322 -0.08856552
-0.08856552 0.00738046 0.22141379 0.00738046 0.00738046 -0.12546782 -0.02214138 0.09594598
-0.02214138 -0.00738046 -0.0738046 -0.00738046 -0.0738046 0.0369023 -0.02952184 0.00738046
0.01476092 0.13284828 0.02952184 0.08856552 -0.01476092 0.10332644 0.05904368 0.08118506
-0.04428276 -0.0738046 -0.16237012 0.00738046 0.0369023 -0.05904368 -0.09594598 -0.13284828
0.0 -0.02952184 -0.22141379 0.04428276 0.10332644 0.12546782 -0.16975057 -0.01476092
0.11808736 -0.00738046 0.02952184 0.06642414 -0.02214138 -0.05904368 -0.05904368 -0.11808736
0.06642414 -0.0369023 0.10332644 -0.16237012 0.08856552 0.02214138 0.0369023 -0.11808736
-0.12546782 -0.08856552 0.0 0.06642414 -0.00738046 -0.04428276 -0.10332644 0.0
0.0738046 0.0369023 0.01476092 -0.05904368 -0.05904368 0.01476092 -0.00738046 0.10332644
-0.110706896 -0.10332644 0.0 0.00738046 0.0738046 -0.06642414 0.08856552 -0.0369023
-0.05166322 0.09594598 0.13284828 -0.05166322 -0.05166322 0.04428276 -0.02952184 -0.0738046
0.10332644 0.0369023 -0.02952184 -0.01476092 -0.00738046 0.04428276 -0.05904368 -0.08118506
0.02214138 0.13284828 -0.02952184 0.06642414 0.05166322 0.09594598 0.04428276 -0.00738046
0.04428276 0.05166322 -0.00738046 -0.16237012 -0.12546782 -0.01476092 0.01476092 0.0
-0.02952184 -0.04428276 0.110706896 0.05166322 -0.02214138 0.1845115 0.05904368 -0.110706896
0.0369023 -0.19189195 -0.04428276 0.33950114 -0.13284828 -0.19189195 0.08118506 0.04428276
0.22141379 0.0 -0.04428276 0.33950114 0.1845115 0.23617472 0.06642414 0.11808736
-0.12546782 0.06642414 -0.16975057 -0.30997932 -0.19927242 0.08856552 -0.19189195 0.08856552
-0.3321207 0.19927242 0.22879426 -0.01476092 -0.16975057 -0.11808736 0.08856552 -0.09594598
-0.00738046 -0.08856552 -0.01476092 -0.06642414 -0.16975057 0.14022873 0.05166322 -0.05166322
0.0738046 -0.04428276 0.02952184 -0.02952184 0.02952184 0.04428276 -0.05904368 0.05904368
-0.05904368 -0.02214138 0.01476092 0.09594598 -0.13284828 0.17713104 -0.02952184 -0.14022873
0.06642414 -0.04428276 0.16237012 0.00738046 -0.05166322 -0.05166322 -0.02952184 -0.10332644
0.0369023 0.01476092 -0.05904368 0.05904368 0.21403334 -0.0369023 -0.110706896 -0.12546782
0.01476092 -0.05904368 -0.08118506 0.00738046 -0.05166322 0.02214138 -0.00738046 -0.22141379
0.02214138 0.04428276 0.04428276 -0.16975057 -0.00738046 0.04428276 -0.05166322 -0.05904368
0.14022873 -0.10332644 -0.11808736 0.08856552 -0.02952184 0.0738046 -0.04428276 0.16975057
00000000: 8470 626d 6a79 7282 7483 7389 6570 796d
00000010: 6968 787b 8371 7c72 6e7b 6a7f 8185 6b72
00000020: 6670 6070 7d67 6d68 6875 9275 7563 7181
00000030: 7173 6a73 6a79 7075 7686 7880 7282 7c7f
00000040: 6e6a 5e75 796c 6762 7470 567a 8285 5d72
00000050: 8473 787d 716c 6c64 7d6f 825e 8077 7964
00000060: 6368 747d 736e 6674 7e79 766c 6c76 7382
00000070: 6566 7475 7e6b 806f 6d81 866d 6d7a 706a
00000080: 8279 7072 737a 6c69 7786 707d 7b81 7a73
00000090: 7a7b 735e 6372 7674 706e 837b 718d 7c65
000000a0: 795a 6ea2 625a 7f7a 9274 6ea2 8d94 7d84
000000b0: 637d 5d4a 5980 5a80 478f 9372 5d64 8067
000000c0: 7368 726b 5d87 7b6d 7e6e 7870 787a 6c7c
000000d0: 6c71 7681 628c 7061 7d6e 8a75 6d6d 7066
000000e0: 7976 6c7c 916f 6563 766c 6975 6d77 7356
000000f0: 777a 7a5d 737a 6d6c 8766 6480 707e 6e8b

Model/Pervasive/pervasive/fc_dir_pred/weights_quant/FakeQuantWithMinMaxVars/transpose u1 [2, 32] scale=0.019322766 zero_point=128
0.71494234 -0.11593659 -0.11593659 -0.077291064 -0.328487 -0.077291064 0.44442362 0.3478098
-0.077291064 0.15458213 0.15458213 0.09661383 0.23187318 0.038645532 0.21255043 -0.09661383
0.328487 -0.7922334 0.30916426 -0.21255043 -0.30916426 -0.038645532 -0.15458213 -0.63765126
-0.48306915 0.038645532 0.40577808 -0.077291064 0.328487 -0.88884723 -0.42510086 2.4539912
-0.30916426 0.11593659 0.23187318 0.019322766 0.40577808 -0.50239193 -0.6956196 0.2898415
0.27051872 -0.057968296 -0.23187318 0.2898415 0.21255043 0.21255043 -0.44442362 0.077291064
-0.44442362 0.77291065 -0.21255043 -0.13525936 0.15458213 -0.15458213 0.077291064 0.579683
0.21255043 -0.09661383 -0.23187318 0.13525936 -0.23187318 0.7922334 0.30916426 -2.4539912
00000000: a57a 7a7c 6f7c 9792 7c88 8885 8c82 8b7b
00000010: 9157 9075 707e 785f 6782 957c 9152 6aff
00000020: 7086 8c81 9566 5c8f 8e7d 748f 8b8b 6984
00000030: 69a8 7579 8878 849e 8b7b 7487 74a9 9001

Model/Pervasive/pervasive/fc_isbar_pred/weights_quant/FakeQuantWithMinMaxVars/transpose u1 [2, 32] scale=0.047244094 zero_point=128
-0.23622048 -0.33070865 -0.7559055 0.23622048 -0.37795275 -0.8031496 -0.61417323 -0.28346455
0.42519686 -0.6614173 -0.14173228 1.1811024 1.0866141 0.0 0.09448819 -0.37795275
-0.18897638 -0.23622048 -0.18897638 0.42519686 -1.1338582 -0.18897638 0.18897638 -0.61417323
-0.37795275 -0.6614173 -1.3700787 0.18897638 -0.42519686 -0.37795275 -0.992126 -0.28346455
0.37795275 0.23622048 0.09448819 -0.33070865 0.7559055 1.0866141 0.23622048 0.047244094
-0.37795275 0.8503937 0.51968503 -0.8976378 -0.8503937 0.28346455 -0.37795275 0.23622048
0.09448819 0.70866144 -0.09448819 -0.18897638 1.4173229 -0.5669291 -0.14173228 0.47244096
0.51968503 0.047244094 0.8031496 -0.23622048 0.14173228 -0.14173228 0.5669291 0.51968503
00000000: 7b79 7085 786f 737a 8972 7d99 9780 8278
00000010: 7c7b 7c89 687c 8473 7872 6384 7778 6b7a
00000020: 8885 8279 9097 8581 7892 8b6d 6e86 7885
00000030: 828f 7e7c 9e74 7d8a 8b81 917b 837d 8c8b

Model/Pervasive/pervasive/fc_seq_pred/weights_quant/FakeQuantWithMinMaxVars/transpose u1 [242, 32] scale=0.03089877 zero_point=96
-0.06179754 0.06179754 0.0 0.03089877 0.0 -0.15449385 -0.09269631 -0.12359508
-0.12359508 -0.15449385 0.09269631 0.06179754 -0.03089877 -0.2162914 -0.09269631 -0.03089877
-0.24719016 -0.12359508 0.06179754 0.03089877 -0.18539262 0.03089877 -0.09269631 -0.15449385
-0.12359508 -0.12359508 -0.12359508 -0.03089877 0.06179754 -0.12359508 -0.12359508 -0.18539262
0.5252791 -0.46348155 0.18539262 -0.37078524 0.5252791 -1.0196594 -0.58707666 0.89606434
1.6994324 -0.7724693 1.2359508 -0.58707666 0.98876065 0.2162914 -0.49438033 -0.49438033
0.18539262 -0.03089877 -0.18539262 -0.2162914 -0.49438033 0.7106717 -0.9578619 0.6179754
-0.12359508 0.0 1.1432545 -0.6179754 0.4325828 -0.12359508 -1.5449386 0.3089877
0.49438033 -0.679773 0.06179754 -0.679773 0.18539262 -0.49438033 -0.58707666 0.64887416
0.06179754 -1.483141 1.081457 0.24719016 1.1741533 -0.18539262 -0.679773 -0.18539262
0.37078524 0.37078524 -0.7106717 0.679773 -0.7106717 -0.09269631 0.03089877 0.40168402
-0.18539262 0.64887416 1.0196594 1.3286471 0.3089877 -0.27808893 -1.5449386 0.2162914
0.4325828 -0.09269631 0.64887416 -0.58707666 0.49438033 -0.09269631 -0.49438033 0.15449385
-0.18539262 -0.27808893 1.3286471 -0.37078524 1.2668496 -0.03089877 -0.7106717 -0.03089877
-1.1432545 -0.06179754 1.205052 -0.9578619 -1.1432545 0.49438033 -0.18539262 0.55617785
-0.37078524 0.64887416 1.0196594 1.1123557 -0.18539262 -0.2162914 -1.2359508 0.2162914
0.89606434 -0.679773 0.18539262 1.359546 0.40168402 0.03089877 -0.55617785 0.80336803
-0.24719016 -0.8342668 1.2359508 0.12359508 1.0196594 -0.9578619 -0.55617785 0.18539262
0.15449385 0.09269631 -0.58707666 0.8651656 -0.3089877 -0.24719016 -0.49438033 0.18539262
0.3089877 -0.4325828 1.1741533 -0.46348155 -0.46348155 -0.2162914 -1.8230275 0.0
0.24719016 0.40168402 0.03089877 -0.4325828 0.06179754 -1.1123557 -0.46348155 0.679773
0.5252791 -0.15449385 1.4522423 1.2359508 1.081457 -0.24719016 -0.7106717 -0.3398865
-1.0196594 -0.3089877 1.1741533 -0.9578619 -0.4325828 -0.3089877 -0.5252791 0.679773
0.3398865 0.3089877 1.0196594 -0.6179754 0.5252791 0.12359508 -1.1741533 0.3089877
0.7724693 0.3398865 0.46348155 -0.7106717 -0.24719016 -1.0505582 -0.7106717 1.4213434
-0.3089877 -1.3904446 0.9269631 0.7415705 0.9578619 -0.7106717 -0.3089877 0.5252791
-0.58707666 0.4325828 0.2162914 0.58707666 0.15449385 -0.7415705 -0.6179754 0.27808893
-0.7106717 0.679773 1.1741533 -0.55617785 0.7106717 -0.2162914 -1.5140398 0.15449385
0.7724693 -0.49438033 1.2668496 0.8342668 0.8342668 0.64887416 -0.5252791 0.3089877
0.12359508 -1.0505582 1.3904446 1.2977483 1.081457 -0.7415705 -0.7106717 -0.4325828
-0.9269631 0.03089877 0.8342668 -0.64887416 -0.98876065 -0.49438033 -0.58707666 0.3398865
-0.9269631 -0.55617785 1.1741533 -0.8651656 -0.40168402 -0.3089877 -0.80336803 0.06179754
00000000: 5e62 6061 605b 5d5c 5c5b 6362 5f59 5d5f
00000010: 585c 6261 5a61 5d5b 5c5c 5c5f 625c 5c5a
00000020: 7151 6654 713f 4d7d 9747 884d 8067 5050
00000030: 665f 5a59 5077 4174 5c60 854c 6e5c 2e6a
00000040: 704a 624a 6650 4d75 6230 8368 865a 4a5a
00000050: 6c6c 4976 495d 616d 5a75 818b 6a57 2e67
00000060: 6e5d 754d 705d 5065 5a57 8b54 895f 495f
00000070: 3b5e 8741 3b70 5a72 5475 8184 5a59 3867
00000080: 7d4a 668c 6d61 4e7a 5845 8864 8141 4e66
00000090: 6563 4d7c 5658 5066 6a52 8651 5159 2560
000000a0: 686d 6152 623c 5176 715b 8f88 8358 4955
000000b0: 3f56 8641 5256 4f76 6b6a 814c 7164 3a6a
000000c0: 796b 6f49 583e 498e 5633 7e78 7f49 5671
000000d0: 4d6e 6773 6548 4c69 4976 864e 7759 2f65
000000e0: 7950 897b 7b75 4f6a 643e 8d8a 8348 4952
000000f0: 4261 7b4b 4050 4d6b 424e 8644 5356 4662
